model/model.pth (torch, 14418 bytes, 10 tensors)

cnn.0.weight f4 [200, 1, 1, 1]
0.3156386 0.9334551 0.7143705 -1.1397463 0.8135961 0.47333673 1.1005894 0.8741353
-0.19744654 0.31460404 0.103811175 -0.87487596 1.2459846 1.0570885 -0.5558167 0.88339895
0.3057416 -0.6883788 0.9351269 0.44625062 -0.53986657 0.44270405 -0.18138506 -0.8059195
0.7740739 0.42552364 1.0802877 -0.41067427 1.081341 -1.0966346 -0.048207883 0.33672282
0.7857809 1.0597361 0.25376824 -0.8995475 0.20199998 0.83674425 0.8506738 1.1259943
1.142742 -1.1484517 -0.35509768 -0.86515576 0.15151924 -0.16022688 0.8505843 -0.40840793
1.0530242 -0.5606407 0.4981845 0.7796397 0.7646816 1.2322835 -0.8810514 -0.14752808
1.1479381 0.9727329 0.94970185 -0.54822254 0.75166965 -0.15185644 1.1101134 0.5759966
-0.7782458 0.9804438 0.47204596 -0.46840504 -0.4918476 -0.5071774 0.8743055 0.62299705
-0.463626 -0.47495607 0.7790556 1.0088049 -0.07791121 0.81867176 -0.7831839 -0.41344967
-0.53221846 -0.5177889 -0.3572854 -1.1390153 -1.0896881 1.1759377 0.09913751 -1.0933036
-0.93815506 0.22671533 -0.5846336 -0.67458725 1.0687429 -0.73640174 1.1401069 0.8213371
0.4766351 -0.94178027 -1.0623418 0.75843674 -0.975104 -0.583914 0.9755129 0.18663591
0.8898338 0.66133326 0.8740203 1.0998996 0.8617989 0.26545998 -0.75528115 1.0518291
-1.1002673 0.47376674 -1.1554465 0.6956278 0.93831855 -0.30931613 -0.6882849 -0.9981339
0.7863141 0.32075408 0.79096055 0.9616475 0.8071176 -0.7195257 -0.27317697 0.5838982
-1.1054683 -1.1201184 -0.8298778 0.5272571 -0.7738475 -0.4475392 0.46066663 0.75987375
0.27943686 -1.0582908 1.0148944 -0.3891024 -0.43895584 -0.88755274 0.82285994 -0.35182676
0.046842963 0.81343526 -0.47163403 -0.36864096 -0.66224676 -0.69199586 -0.89817363 0.7547417
-0.3017238 -0.28936097 0.43147653 -0.604918 -0.9713476 -0.72322106 -1.2215637 0.3712726
-0.6259815 0.37845194 0.90797544 -0.36533085 1.0706979 0.49071687 -1.0729053 1.1496333
-0.3248514 -0.67601323 0.7218804 0.8516706 0.1687594 0.74945486 -0.3298351 0.24457398
0.7297121 -0.8670506 -0.7377626 0.25603074 -0.15972888 1.0916622 1.2847418 0.90049404
-0.28510383 -0.42453253 -0.73677844 -0.79378635 -0.914496 -0.6281223 -0.58099234 0.9409502
0.43108636 -0.29901165 0.04340591 -0.3434881 -0.35117492 -0.18498328 0.35129097 -0.5235774
00000000: 629b a13e eaf6 6e3f fce0 363f 35e3 91bf
00000010: d647 503f 3159 f23e 1de0 8c3f 55c7 5f3f
00000020: 6d2f 4abe c813 a13e f49a d43d dff7 5fbf
00000030: 6c7c 9f3f ad4e 873f 014a 0ebf 6f26 623f
00000040: 2a8a 9c3e 9839 30bf 7a64 6f3f f67a e43e
00000050: b234 0abf 1baa e23e 01bd 39be be50 4ebf
00000060: b529 463f 3cde d93e de46 8a3f e643 d2be
00000070: 6269 8a3f 865e 8cbf a175 45bd ef66 ac3e
00000080: f028 493f 6fa5 873f e9ed 813e bf48 66bf
00000090: 15d9 4e3e df34 563f c2c5 593f 9520 903f
000000a0: 5f45 923f 7700 93bf 5dcf b5be d97a 5dbf
000000b0: dc27 1b3e 8412 24be e5bf 593f d81a d1be
000000c0: 7fc9 863f 2686 0fbf 0a12 ff3e 7896 473f
000000d0: 2cc2 433f 77bb 9d3f 968c 61bf 9a11 17be
000000e0: a3ef 923f 0605 793f a91f 733f 5058 0cbf
000000f0: 6c6d 403f 4180 1bbe 3218 8e3f 8374 133f
00000100: 1e3b 47bf 5dfe 7a3f 02b0 f13e c9d2 efbe
00000110: 73d3 fbbe 61d6 01bf 7cd2 5f3f bc7c 1f3f
00000120: 6360 edbe 712d f3be 3070 473f 8520 813f
00000130: ea8f 9fbd 7994 513f bd7e 48bf adaf d3be
00000140: 783f 08bf d08d 04bf 1dee b6be 41cb 91bf
00000150: e67a 8bbf 2085 963f 9b08 cb3d 5ff1 8bbf
00000160: ee2a 70bf 1028 683e 8caa 15bf c0b1 2cbf
00000170: 91cc 883f d384 3cbf 06ef 913f 2643 523f
00000180: 8409 f43e 8318 71bf d1fa 87bf e928 423f
00000190: 6aa0 79bf 637b 15bf 37bb 793f 7c1d 3f3e
000001a0: 26cc 633f 234d 293f cbbf 5f3f 83c9 8c3f
000001b0: da9e 5c3f 5fea 873e 1b5a 41bf 56a2 863f
000001c0: 8fd5 8cbf 8e91 f23e ace5 93bf aa14 323f
000001d0: a535 703f af5e 9ebe 7033 30bf b485 7fbf
000001e0: e14b 493f e139 a43e 647c 4a3f 882e 763f
000001f0: 429f 4e3f d632 38bf dadd 8bbe 5a7a 153f
00000200: fc7f 8dbf 0a60 8fbf df72 54bf 52fa 063f
00000210: df1a 46bf dc23 e5be 7fdc eb3e 1687 423f
00000220: 5912 8f3e 1376 87bf 0fe8 813f 6e38 c7be
00000230: d2be e0be a836 63bf f3a6 523f a322 b4be
00000240: 68de 3f3d 4b3d 503f 047a f1be 82be bcbe
00000250: 0189 29bf a426 31bf b5ee 65bf c136 413f
00000260: 8b7b 9abe 1f27 94be 7eea dc3e e8db 1abf
00000270: 3caa 78bf 0425 39bf 335c 9cbf 7117 be3e
00000280: 5340 20bf 74c4 c13e 1471 683f a50c bbbe
00000290: a10c 893f 3e3f fb3e f654 89bf 2f27 933f
000002a0: ec52 a6be 340f 2dbf 27cd 383f 1607 5a3f
000002b0: 44cf 2c3e 46dc 3f3f 25e0 a8be 9a71 7a3e
000002c0: 6ace 3a3f 07f7 5dbf 02de 3cbf 7616 833e
000002d0: f88f 23be 96bb 8b3f 6b72 a43f c786 663f
000002e0: 21f9 91be 545c d9be 839d 3cbf 9535 4bbf
000002f0: 691c 6abf a0cc 20bf eabb 14bf 1de2 703f
00000300: 5ab7 dc3e 0e18 99be 65ca 313d acdd afbe
00000310: 33cd b3be 426c 3dbe 69dc b33e 2b09 06bf

cnn.0.bias f4 [200]
1.2889667 -0.11687728 -0.283753 -0.28373593 1.0633096 0.38009804 1.2025108 0.40562803
-0.57539135 1.1342252 -1.0660614 -0.09925795 -0.25751087 -0.07457966 -0.5684216 0.26918682
0.69381064 0.67092496 -0.17364706 0.378896 -0.97995037 0.48867255 0.83468854 -0.008203449
0.04185957 0.5033412 -0.33812138 0.030278608 -0.048563562 -0.082927994 -0.64971757 0.1668152
1.1797664 -0.067690834 1.1526506 -0.58900344 1.1725599 0.20842867 0.2791432 -0.16809548
0.6101987 -0.77614135 -1.1933668 -0.410701 1.3274602 -0.68379664 0.44311723 -0.4815857
-0.54962957 0.5261627 1.2864516 1.1552109 0.9879971 1.0753301 -0.5650757 -0.7711821
0.73869336 0.4191238 0.9803785 0.07903239 0.8821262 -0.8139586 -0.54328966 -0.20007192
-0.5688926 -0.52366376 0.9902137 1.3989289 -1.2024744 -1.3297654 0.9949995 -0.42123193
-0.2962018 -0.88760763 -0.22684234 1.2490783 -1.1780336 0.5296019 -1.214444 -1.1290305
1.2904576 -0.7565159 1.2905849 -1.348028 0.08673632 1.1797177 0.9980392 -1.2862964
0.1498001 1.139618 -0.85847306 -1.1588644 1.2901773 -0.6280776 0.41984144 -0.38033247
0.57509446 -1.1714668 -0.5650569 0.12774397 -0.17703089 -1.1937269 0.80682963 1.3717358
0.5179077 -0.61890227 1.0654527 0.61725557 0.011085586 1.3596256 -1.2082151 -0.4958269
-0.2399121 0.55568284 0.4036785 0.3567128 -0.013618081 1.2545742 -1.1546272 0.001513244
-0.10466279 1.2184943 0.44302034 -0.67951465 -0.6344949 0.06558952 1.0509359 -0.11620713
-0.61222047 0.21926202 -0.7402775 0.008741287 -0.7245693 -0.988652 1.001281 -0.16417357
0.71039164 -1.0796566 1.1371248 -1.2473675 -1.1214814 -0.1837222 0.006659044 -1.2127607
-1.0176712 -0.15945542 -0.617241 -0.83395237 1.1074767 -0.08820473 0.58254564 0.33210322
-1.03811 -0.966647 -0.109426014 -0.851675 -0.4370227 -0.06701704 -1.0771072 0.88381535
-0.757021 0.32912382 1.0866446 -1.0579327 1.1039587 0.86178964 -1.3700012 0.4428116
-0.95535886 0.13373385 0.12418248 0.97983235 1.3483104 0.9485938 -1.1942058 1.0631138
1.1904821 0.009756609 -0.31353617 1.3012394 -0.65496635 -0.23659995 0.454012 1.1775607
-1.1563306 -0.6674108 -0.23340674 -0.58366066 -0.27189985 -0.3728827 -0.98960185 1.2206037
0.6588731 -1.3456386 -1.234977 -0.89528227 -0.585866 -0.88757277 0.77305883 -0.9821323
00000000: dcfc a43f 5b5d efbd 1348 91be d645 91be
00000010: 871a 883f 369c c23e e0eb 993f 7aae cf3e
00000020: d94c 13bf 4b2e 913f b374 88bf c147 cbbd
00000030: 77d8 83be 39bd 98bd 1484 11bf dbd2 893e
00000040: 939d 313f bdc1 2b3f 89d0 31be a8fe c13e
00000050: 07de 7abf 4a33 fa3e 26ae 553f c267 06bc
00000060: f174 2b3d f8da 003f 3f1e adbe d80a f83c
00000070: 96ea 46bd 27d6 a9bd e453 26bf 9bd1 2a3e
00000080: 9602 973f 7ea1 8abd 0e8a 933f eec8 16bf
00000090: 7116 963f 536e 553e dceb 8e3e 3921 2cbe
000000a0: fb35 1c3f 33b1 46bf 3ec0 98bf 6747 d2be
000000b0: 37ea a93f 4c0d 2fbf 43e0 e23e 6792 f6be
000000c0: 86b4 0cbf 99b2 063f 72aa a43f f3dd 933f
000000d0: 61ed 7c3f 6ba4 893f cda8 10bf 316c 45bf
000000e0: 021b 3d3f 6597 d63e 16fa 7a3f bcdb a13d
000000f0: 06d3 613f 975f 50bf 0815 0bbf a7df 4cbe
00000100: f2a2 11bf d40e 06bf a57e 7d3f 1a10 b33f
00000110: aeea 99bf c135 aabf 4ab8 7e3f b6ab d7be
00000120: c3a7 97be 413a 63bf 5c49 68be cce1 9f3f
00000130: cec9 96bf fd93 073f e772 9bbf 1284 90bf
00000140: b72d a53f 07ab 41bf e331 a53f 2e8c acbf
00000150: d0a2 b13d fd00 973f 7f7f 7f3f 5ca5 a4bf
00000160: 3365 193e 01df 913f e4c4 5bbf ab55 94bf
00000170: 8824 a53f b2c9 20bf 75f5 d63e f0ba c2be
00000180: 6439 133f a0f2 95bf 92a7 10bf 51cf 023e
00000190: 9647 35be 0bcc 98bf 638c 4e3f 0a95 af3f
000001a0: 9995 043f 6170 1ebf c160 883f 7604 1e3f
000001b0: 51a0 353c 3608 ae3f cba6 9abf 06dd fdbe
000001c0: 84ab 75be 3b41 0e3f f3ae ce3e 0fa3 b63e
000001d0: 5f1e 5fbc e395 a03f d3ca 93bf 0b58 c63a
000001e0: 7259 d6bd 9ff7 9b3f 90d3 e23e acf4 2dbf
000001f0: 426e 22bf cc53 863d 1185 863f 01fe edbd
00000200: 7bba 1cbf 3986 603e d482 3dbf 9d37 0f3c
00000210: 607d 39bf 4c18 7dbf fa29 803f 1e1d 28be
00000220: 3adc 353f 3032 8abf 4e8d 913f bda9 9fbf
00000230: b48c 8fbf ac21 3cbe 1c34 da3b be3b 9bbf
00000240: 0d43 82bf 4848 23be 8203 1ebf e77d 55bf
00000250: ccc1 8d3f aea4 b4bd b621 153f 6f09 aa3e
00000260: cae0 84bf 2e76 77bf bf1a e0bd 5f07 5abf
00000270: 70c1 dfbe 3b40 89bd a6de 89bf b941 623f
00000280: 21cc 41bf eb82 a83e 2c17 8b3f 576a 87bf
00000290: 854e 8d3f 3f9e 5c3f 335c afbf 34b8 e23e
000002a0: 6692 74bf 87f1 083e 6253 fe3d 4bd6 7a3f
000002b0: 6f95 ac3f 0bd7 723f bcdb 98bf 1d14 883f
000002c0: b861 983f 2fda 1f3c d087 a0be 038f a63f
000002d0: e0ab 27bf 4247 72be 4374 e83e 4fba 963f
000002e0: a402 94bf 6fdb 2abf 2d02 6fbe c96a 15bf
000002f0: 7536 8bbe 7bea bebe 8c56 7dbf be3c 9c3f
00000300: e8ab 283f e33d acbf ba13 9ebf 3831 65bf
00000310: 50fb 15bf f837 63bf 2fe7 453f 066d 7bbf

cnn.2.weight f4 [1, 200, 2, 1]
0.32000056 0.21059227 0.29371724 0.14425251 0.3049699 0.17134884 -0.23739015 -0.23446901
0.28220612 0.1590779 0.33515656 0.18616165 0.20367216 0.21605949 0.29653242 0.15738767
-0.3132729 -0.26815143 0.3033774 0.24851859 -0.10301971 -0.12071004 -0.21784565 -0.19088401
0.2780872 0.12750074 0.23873943 0.1719456 -0.24533688 -0.22250974 0.2402692 0.20143545
0.4061652 0.28290486 -0.04102261 -0.028241413 0.20492908 0.18802164 0.28108856 0.1536703
-0.18924512 -0.22102888 0.34050784 0.21762204 0.05017253 0.119053155 -0.2255167 -0.17875737
0.24546815 0.18038157 0.33204523 0.250185 0.25341028 0.14961305 -0.21816383 -0.12244613
0.28696686 0.13899998 -0.22345912 -0.1625003 -0.17089647 -0.15497917 0.35486087 0.28093427
0.22519115 0.18169343 0.20524015 0.13412803 0.32425505 0.25900054 -0.23217233 -0.17841308
0.2368443 0.32402197 0.23221648 0.17204188 0.2627298 0.16015522 0.21116467 0.12383072
0.21027412 0.17939922 -0.21397488 -0.16214548 -0.24400018 -0.20551659 -0.17658208 -0.17800066
0.30830875 0.2881382 -0.29106826 -0.32069063 0.23382418 0.18252088 -0.2767867 -0.16788991
0.258501 0.16236287 -0.069121785 -0.033448566 0.29551414 0.19443664 0.26991597 0.21363609
0.16634436 0.119458996 0.23378047 0.17648786 -0.24947698 -0.17125823 -0.25956005 -0.3173427
0.20225222 0.2088842 0.22656673 0.20932627 0.19966121 0.17932639 -0.21713999 -0.17622183
0.23994486 0.22961855 -0.26730904 -0.2895391 0.22565545 0.19619268 0.3389225 0.14602026
-0.25874418 -0.18121882 0.2751265 0.15079425 0.28752398 0.18988216 0.17394036 0.18891121
-0.24473721 -0.23731825 -0.23826842 -0.19939254 0.18659748 0.21524851 0.23332591 0.19259906
-0.25261763 -0.20376246 -0.25348976 -0.18203324 0.25744963 0.18573426 0.20400618 0.1814783
-0.1875825 -0.20268248 0.18042034 0.12577745 -0.19350997 -0.20892486 -0.21418343 -0.23726104
0.16340296 0.2242202 -0.23575637 -0.23916145 0.14937896 0.16234761 -0.22292349 -0.21241993
-0.2546179 -0.16910799 0.2310993 0.18779664 0.29339054 0.28602216 -0.23611072 -0.15098925
-0.24205345 -0.111383066 0.24559665 0.26422685 -0.17144759 -0.20859222 -0.19547234 -0.20299496
0.27504644 0.18896858 -0.204006 -0.19278322 0.27083856 0.12374474 0.29670417 0.15350278
0.35125968 0.1925651 -0.15655325 -0.15487197 -0.20378253 -0.23634797 0.17203811 0.11953943
-0.24150945 -0.22466053 -0.17710713 -0.24663725 0.20367143 0.18096738 0.2429809 0.306972
0.21067679 0.16283716 0.2572747 0.13645439 0.19271697 0.13203456 0.26904735 0.13330394
0.29632342 0.15473936 0.21797071 0.27879176 -0.17295268 -0.21205482 0.24026194 0.1573421
-0.25895706 -0.18866627 0.31608945 0.19651684 -0.11453929 -0.06479906 0.22210415 0.18067048
0.18866347 0.17158379 0.21025081 0.2586354 -0.15368533 -0.1598817 -0.21021736 -0.19912697
0.17168069 0.100561425 0.20464906 0.20170212 0.21514988 0.2016689 0.19046721 0.08682868
0.23145731 0.17423859 -0.19209008 -0.10413633 0.13414077 0.17130193 0.30645746 0.20309193
00000000: 1dd7 a33e 80a5 573e 1b62 963e eeb6 133e
00000010: 0425 9c3e 1276 2f3e 6716 73be a518 70be
00000020: 527d 903e 51e5 223e a499 ab3e 29a1 3e3e
00000030: 6f8f 503e b33e 5d3e 19d3 973e 3c2a 213e
00000040: 4e65 a0be 254b 89be 4854 9b3e a87b 7e3e
00000050: fffb d2bd d336 f7bd ee12 5fbe 1977 43be
00000060: 7261 8e3e 8e8f 023e 1c78 743e 8212 303e
00000070: 9739 7bbe 98d9 63be 2109 763e 1845 4e3e
00000080: e3f4 cf3e e8d8 903e 5307 28bd 895a e7bc
00000090: eed8 513e bf88 403e d7ea 8f3e bf5b 1d3e
000000a0: 79c9 41be 6555 62be 0b57 ae3e 50d8 5e3e
000000b0: b681 4d3d 24d2 f33d daed 66be 2c0c 37be
000000c0: 015c 7b3e f2b5 383e d501 aa3e 4018 803e
000000d0: febe 813e 2a34 193e 5766 5fbe 09c5 fabd
000000e0: 52ed 923e 0356 0e3e 78d2 64be 7b66 26be
000000f0: 7cff 2ebe dcb2 1ebe 53b0 b53e 9ed6 8f3e
00000100: 8298 663e d80d 3a3e 792a 523e dc58 093e
00000110: c204 a63e b89b 843e 95be 6dbe ebb1 36be
00000120: 5087 723e 35e6 a53e 28ca 6d3e bf2b 303e
00000130: 8584 863e bbff 233e 8d3b 583e f69a fd3d
00000140: 1952 573e 6eb4 373e 3b1c 5bbe 7709 26be
00000150: 2fdb 79be f172 52be efd1 34be ce45 36be
00000160: a5da 9d3e da86 933e e606 95be 9031 a4be
00000170: 9b6f 6f3e c1e6 3a3e fdb6 8dbe 55eb 2bbe
00000180: 3e5a 843e 7442 263e b98f 8dbd 5d01 09bd
00000190: a14d 973e 661a 473e 6d32 8a3e 6bc3 5a3e
000001a0: 2d56 2a3e eba6 f43d 2664 6f3e 3cb9 343e
000001b0: e576 7fbe 515e 2fbe 0ee5 84be be7a a2be
000001c0: 351b 4f3e bde5 553e 1c01 683e a059 563e
000001d0: fd73 4c3e 56a1 373e f259 5ebe 7f73 34be
000001e0: 1bb4 753e 2021 6b3e bbdc 88be 783e 94be
000001f0: 3912 673e bce6 483e 4087 ad3e 5686 153e
00000200: 1e7a 84be 6d91 39be 61dd 8c3e cf69 1a3e
00000210: 5836 933e 7870 423e 6c1d 323e f171 413e
00000220: 649c 7abe 8e03 73be a3fc 73be 8f2d 4cbe
00000230: 6913 3f3e 1b6a 5c3e fdec 6e3e b038 453e
00000240: 1957 81be 1ba7 50be 69c9 81be ec66 3abe
00000250: 70d0 833e 1f31 3e3e ffe6 503e 73d5 393e
00000260: a015 40be ff8b 4fbe 1cc0 383e cecb 003e
00000270: 7a27 46be 66f0 55be e752 5bbe 8ff4 72be
00000280: 1b53 273e fb99 653e 1e6a 71be bde6 74be
00000290: ccf6 183e 743e 263e 0e46 64be 9c84 59be
000002a0: 475d 82be a52a 2dbe 4ba5 6c3e c34d 403e
000002b0: 4937 963e 7f71 923e 02c7 71be ed9c 1abe
000002c0: dcdc 77be ce1c e4bd b07d 7b3e be48 873e
000002d0: f58f 2fbe 3399 55be e729 48be e9dd 4fbe
000002e0: e3d2 8c3e fb80 413e f3e6 50be f768 45be
000002f0: 5aab 8a3e e26d fd3d 9ce9 973e d52f 1d3e
00000300: 4fd8 b33e c92f 453e 7f4f 20be c296 1ebe
00000310: 5eac 50be 3405 72be c22a 303e 17d1 f43d
00000320: 414e 77be 690d 66be 925b 35be 7a8e 7cbe
00000330: 3e8f 503e 834f 393e fccf 783e 6f2b 9d3e
00000340: a8bb 573e c9be 263e 82b9 833e b3ba 0b3e
00000350: 9957 453e 1134 073e 93c0 893e d480 083e
00000360: b4b7 973e ff73 1e3e b733 5f3e cbbd 8e3e
00000370: 821a 31be e624 59be 3a07 763e 4a1e 213e
00000380: 0596 84be bb31 41be 7ad6 a13e b63b 493e
00000390: 9393 eabd 5fb5 84bd 456f 633e af01 393e
000003a0: ff30 413e a9b3 2f3e fd4b 573e dc6b 843e
000003b0: b05f 1dbe 07b8 23be 3843 57be f1e7 4bbe
000003c0: 10cd 2f3e 26f3 cd3d 868f 513e 008b 4e3e
000003d0: 4050 5c3e 4b82 4e3e d609 433e 3cd3 b13d
000003e0: 2503 6d3e 9a6b 323e 43b3 44be 6e45 d5bd
000003f0: 335c 093e c669 2f3e fee7 9c3e 55f7 4f3e

cnn.5.weight f4 [128, 6]
-0.3795873 -0.1965057 -0.3139468 -0.39365926 -0.32868376 0.260226 0.21699938 0.41225672
-0.39683804 0.14993112 0.12427368 -0.38315222 0.28914648 0.09467229 -0.06104167 -0.05118873
-0.16173443 0.27181286 0.011297863 -0.12617597 -0.33938214 -0.3240565 0.00088613835 0.15706718
0.15956733 0.3697591 -0.35401866 0.042050805 0.11559197 -0.28069067 -0.032657072 -0.0944209
-0.4199844 0.35814133 -0.4180514 -0.4016514 -0.038937725 0.19634645 -0.37161472 0.11155366
0.002648739 -0.31626496 -0.20220503 -0.16665739 0.19558294 0.15477267 -0.27420282 -0.019332591
0.4079536 0.23253797 0.33649963 0.4480447 -0.07893702 -0.20201275 0.34775332 0.20180088
-0.009954079 0.44795144 0.0062160334 0.41429946 -0.28056443 -0.075818926 -0.25382003 -0.2819413
-0.29573837 0.23723745 0.14902905 0.096417114 -0.086154856 0.46123287 0.24753353 0.4632664
0.43690455 0.04101067 -0.30455464 -0.09461014 0.18706727 0.3081424 0.17417644 -0.36767423
-0.007203307 0.2423494 -0.22350854 -0.033054937 -0.28776166 -0.13010286 0.20895302 -0.23633434
0.38216934 -0.32875186 0.1765154 -0.26943582 0.010589152 -0.54972637 -0.16095687 -0.26199314
-0.019788278 -0.28967458 -0.11393429 -0.22218548 -0.28570268 -0.18707281 -0.20676512 0.037583597
0.29943943 0.36600605 -0.21352483 -0.28803796 -0.070315 -0.41164145 -0.2482418 -0.3323896
0.021104649 0.2127364 0.22503278 -0.39176172 0.10993447 -0.1453683 -0.013195156 0.24941784
-0.22800577 0.06403937 -0.27554902 -0.12860924 0.33933273 -0.118651934 0.40001476 0.04207676
0.43691826 -0.105641976 0.3118526 0.15887682 -0.39168328 -0.40071902 0.2091082 0.35111058
0.28077427 0.03643241 -0.07754765 -0.31430927 0.08737796 0.11202884 -0.2318896 -0.07589926
-0.35014582 0.010028128 0.039998606 -0.016857596 -0.35913956 0.064269625 -0.112307034 0.0705022
0.10085347 -0.27005517 0.2288524 0.14908026 -0.01253675 -0.026998786 0.37730387 0.21719088
0.49175054 0.03935005 0.21392798 -0.32910356 0.013318863 0.06847629 0.22937238 0.34131598
0.37799516 0.33400255 -0.39637825 0.14278516 -0.18704797 0.16718735 -0.050172247 0.42216066
0.17386575 -0.17186366 -0.0037564058 0.10141382 0.09312508 -0.366969 0.33890584 0.32204783
-0.35797122 0.34064668 -0.20343949 0.027929306 -0.060271434 0.11405072 0.17947964 0.13627975
0.499209 0.09068942 0.68589735 0.77646446 0.81173986 0.2093249 0.18377763 0.22491787
-0.22954547 -0.32792178 0.008646959 0.16300383 0.06573715 -0.013925908 -0.0011714613 0.033935353
-0.28562757 -0.027040517 0.31358188 -0.274194 -0.108939 0.38042977 -0.34157282 -0.34496963
0.12506104 -0.1054957 -0.31135243 -0.1858566 -0.07321713 0.27418113 -0.34899995 0.16076125
-0.21338603 -0.018432342 0.18325488 -0.2299977 -0.33790198 -0.34845912 0.042625666 0.010222925
0.025632622 0.1654437 -0.15772197 -0.36884215 -0.057878625 -0.2941821 0.15947331 -0.077643335
0.0858345 -0.14859292 0.13352315 0.5035782 -0.12670282 0.42458528 0.25700322 -0.17715065
-0.17295663 0.25645304 -0.10363819 -0.43053442 -0.3380362 0.08684947 -0.3477195 -0.3718343
00000000: 4459 c2be ca38 49be a3bd a0be b58d c9be
00000010: 3d49 a8be 583c 853e 1635 5e3e 5013 d33e
00000020: 5b2e cbbe 8b87 193e 3383 fe3d 872c c4be
00000030: 020b 943e 8ce3 c13d d506 7abd 46ab 51bd
00000040: b69d 25be 0e2b 8b3e ac1a 393c 4634 01be
00000050: 7fc3 adbe bcea a5be bd4b 683a 38d6 203e
00000060: 9e65 233e 1151 bd3e ef41 b5be 773d 2c3d
00000070: 7cbb ec3d b0b6 8fbe 6cc3 05bd bf5f c1bd
00000080: 3208 d7be 4d5e b73e d50a d6be 41a5 cdbe
00000090: 2a7d 1fbd 0b0f 493e 4944 bebe 3f76 e43d
000000a0: 7796 2d3b 7bed a1be d60e 4fbe 3ca8 2abe
000000b0: e546 483e ba7c 1e3e 5064 8cbe 625f 9ebc
000000c0: 4bdf d03e 6f1e 6e3e ae49 ac3e 1d66 e53e
000000d0: bba9 a1bd 6edc 4ebe b90c b23e e4a4 4e3e
000000e0: 6f16 23bc e459 e53e deaf cb3b 0f1f d43e
000000f0: 24a6 8fbe f446 9bbd b3f4 81be 9c5a 90be
00000100: 056b 97be 60ee 723e 129b 183e 5676 c53d
00000110: f571 b0bd b726 ec3e 6e79 7d3e 4131 ed3e
00000120: f4b1 df3e cefa 273d 96ee 9bbe f6c2 c1bd
00000130: 908e 3f3e d7c4 9d3e 4f5b 323e cc3f bcbe
00000140: b809 ecbb 712a 783e 6cdf 64be 9d64 07bd
00000150: 7f55 93be af39 05be c8f7 553e a101 72be
00000160: b3ab c33e 2a52 a8be 74c0 343e 7ef3 89be
00000170: 1f7e 2d3c deba 0cbf e1d1 24be f723 86be
00000180: 071b a2bc 3a50 94be 6256 e9bd 9784 63be
00000190: 9f47 92be 0490 3fbe 3cba 53be 42f1 193d
000001a0: 2050 993e 2565 bb3e 41a6 5abe b679 93be
000001b0: 5001 90bd abc2 d2be 1933 7ebe f82e aabe
000001c0: a8e3 ac3c 92d7 593e fe6e 663e fe94 c8be
000001d0: 5325 e13d 6ddb 14be 7f30 58bc 6467 7f3e
000001e0: 587a 69be 1327 833d c314 8dbe 24b2 03be
000001f0: 05bd ad3e c9ff f2bd bcce cc3e ae58 2c3d
00000200: c0b3 df3e d25a d8bd 25ab 9f3e 9bb0 223e
00000210: b68a c8be 0b2b cdbe 7620 563e c4c4 b33e
00000220: a5c1 8f3e 273a 153d 4dd1 9ebd 25ed a0be
00000230: 37f3 b23d 606f e53d 7874 6dbe 1271 9bbd
00000240: 5046 b3be 044d 243c 94d5 233d f118 8abc
00000250: 24e1 b7be cb9f 833d 3b01 e6bd 7563 903d
00000260: 448c ce3d ac44 8abe 4958 6a3e 7fa8 183e
00000270: f166 4dbc 8f2c ddbc f92d c13e 4967 5e3e
00000280: bac6 fb3e 852d 213d f00f 5b3e 4380 a8be
00000290: 5c37 5a3c 4c3d 8c3d 98e0 6a3e f8c0 ae3e
000002a0: 9588 c13e 6202 ab3e 17f2 cabe 4636 123e
000002b0: 8189 3fbe 2933 2b3e 6a81 4dbd 7125 d83e
000002c0: dd09 323e 07fd 2fbe 082e 76bb 0db2 cf3d
000002d0: 5db8 be3d 5ce3 bbbe 1185 ad3e 74e3 a43e
000002e0: 0148 b7be 3e69 ae3e 7152 50be 00cc e43c
000002f0: 2edf 76bd 6d93 e93d 83c9 373e eb8c 0b3e
00000300: 5298 ff3e 60bb b93d f896 2f3f 60c6 463f
00000310: 2fce 4f3f 4459 563e 3430 3c3e df50 663e
00000320: f80d 6bbe 5de5 a7be faab 0d3c 7aea 263e
00000330: 33a1 863d 7e29 64bc b88b 99ba ccff 0a3d
00000340: c73d 92be 1384 ddbc ce8d a03e 2863 8cbe
00000350: 691b dfbd b1c7 c23e a2e2 aebe dc9f b0be
00000360: 0010 003e 210e d8bd 9669 9fbe 3151 3ebe
00000370: ddf2 95bd 7861 8c3e 1fb0 b2be 999e 243e
00000380: de81 5abe 6cff 96bc 2ba7 3b3e 8484 6bbe
00000390: 7d01 adbe 3c69 b2be 4098 2e3d 0e7e 273c
000003a0: 81fb d13c 136a 293e de81 21be e1d8 bcbe
000003b0: 2312 6dbd 099f 96be f94c 233e 7803 9fbd
000003c0: 00ca af3d be28 18be 4bba 083e 80ea 003f
000003d0: 62be 01be 3e63 d93e ed95 833e fb66 35be
000003e0: 8b1b 31be d04d 833e 4240 d4bd 026f dcbe
000003f0: 1513 adbe 23de b13d 4a08 b2be 1161 bebe

cnn.5.bias f4 [128]
0.38018858 -0.40676463 -0.23248573 -0.35342133 0.33059427 0.3712853 0.3269249 0.40920222
0.26142433 0.3606513 0.06243476 0.3654972 -0.2613575 -0.16548848 -0.35852703 0.2502467
-0.0066257147 -0.3896075 -0.00058828393 0.06949787 -0.013818874 0.36687872 0.09513629 -0.06823088
0.008448393 0.2597384 0.12341204 0.2797875 0.18461494 0.3833865 -0.26118588 0.018761449
0.18009458 -0.076537386 -0.36246473 0.029650273 0.1746268 0.36669856 -0.38241702 -0.052563768
-0.39976493 -0.3303911 -0.27605456 0.007261103 -0.036910906 0.17159235 -0.1446061 -0.0042917263
-0.07325543 0.27525526 0.18225415 0.29807326 0.37199444 0.08752482 -0.26315215 0.27182156
0.24461758 -0.33725682 0.34878656 -0.27353624 0.38379747 -0.0982265 -0.17243944 -0.24421261
0.28671637 0.004458524 -0.2664579 0.047846474 -0.06660369 0.24028078 0.37154657 -0.012345166
-0.36368066 -0.16836587 0.045818865 -0.30796587 0.2039164 -0.0058811465 0.007191665 -0.14661601
-0.008064877 -0.23793232 0.34394276 0.26482424 0.04080844 0.23052524 -0.0056385333 0.3791058
-0.15936731 -0.061616898 -0.1532403 -0.11117589 -0.0037155144 -0.38059148 -0.28783947 -0.24632117
0.2441386 -0.27676582 -0.07051989 -0.22795755 0.041172788 0.29454476 -0.13122442 -0.0059216446
-0.24804012 -0.20688854 -0.343106 0.4103695 0.1522438 0.1855298 0.16983405 0.113272354
0.08052373 -0.25297058 -0.11153105 -0.0822776 -0.21287213 -0.040463068 -0.3733567 0.16517693
0.34844908 -0.094384275 -0.3540396 0.1674067 0.3821378 0.2648279 -0.2965775 -0.3474073
00000000: 14a8 c23e 7443 d0be bd10 6ebe a4f3 b4be
00000010: a743 a93e 1b19 be3e b362 a73e f482 d13e
00000020: 69d9 853e 4aa7 b83e 97bb 7f3d 7322 bb3e
00000030: a6d0 85be d075 29be db90 b7be 5620 803e
00000040: 861c d9bb a27a c7be 1137 1aba e654 8e3d
00000050: 8f68 62bc 87d7 bb3e d1d6 c23d a2bc 8bbd
00000060: 216b 0a3c 6efc 843e 74bf fc3d 4f40 8f3e
00000070: b30b 3d3e 3c4b c43e 28ba 85be 9cb1 993c
00000080: b76a 383e a2bf 9cbd fa94 b9be 21e5 f23c
00000090: 5ed1 323e eabf bb3e 2acc c3be 1b4d 57bd
000000a0: fdad ccbe 0629 a9be 0657 8dbe 8cee ed3b
000000b0: e42f 17bd e8b5 2f3e 9f13 14be 9ca1 8cbb
000000c0: f106 96bd 42ee 8c3e d5a0 3a3e 0f9d 983e
000000d0: 0e76 be3e 3640 b33d e1bb 86be 322c 8b3e
000000e0: 087d 7a3e edac acbe 2794 b23e f10c 8cbe
000000f0: 1a81 c43e fa2a c9bd f793 30be df12 7abe
00000100: 7dcc 923e cf18 923b 2b6d 88be aafa 433d
00000110: 8467 88bd 2a0c 763e 5a3b be3e 6143 4abc
00000120: 5a34 babe 1a68 2cbe 90ac 3b3d b4ad 9dbe
00000130: 76cf 503e a2b6 c0bb 0fa8 eb3b 8222 16be
00000140: 8c22 04bc 88a4 73be 4419 b03e 0b97 873e
00000150: c026 273d cf0e 6c3e 72c3 b8bb 281a c23e
00000160: 2f31 23be 0062 7cbd 06eb 1cbe 2fb0 e3bd
00000170: fd7f 73bb e3dc c2be b25f 93be 9e3b 7cbe
00000180: 78ff 793e 40b4 8dbe bb6c 90bd b46d 69be
00000190: cca4 283d 92ce 963e b25f 06be 5b0a c2bb
000001a0: 3bfe 7dbe 97da 53be 97ab afbe f31b d23e
000001b0: cce5 1b3e 86fb 3d3e fae8 2d3e 56fb e73d
000001c0: a0e9 a43d 5c85 81be 646a e4bd 2981 a8bd
000001d0: 27fb 59be 9abc 25bd 9c28 bfbe 2424 293e
000001e0: eb67 b23e 8b4c c1bd ae44 b5be a96c 2b3e
000001f0: 91a7 c33e 8697 873e 02d9 97be 5fdf b1be

simple_nn.weight f4 [2, 2]
-0.083122894 -0.017248306 0.033378653 0.67389625
00000000: 563c aabd 524c 8dbc 0eb8 083d 7784 2c3f

simple_nn.bias f4 [2]
0.44978014 0.24430485
00000000: 9549 e63e 0d2b 7a3e

classifier_p.weight f4 [6, 130]
-0.3470412 0.09694319 0.36733875 -0.5699646 -0.15044191 -0.4125975 -0.42841583 -0.35268348
0.4331151 0.46400362 -0.42017338 0.45419425 0.38175485 -0.21845277 -0.3027632 -0.48136622
-0.47023717 -0.013068769 -0.39311257 -0.00035288616 -0.5658422 0.46006596 0.31684676 -0.2897465
-0.7620021 0.24048935 0.8078767 0.33165357 0.3771282 0.28703538 0.22192359 0.378321
1.103775 -0.07968053 -0.21769017 -0.26983923 -0.1137681 -0.36221474 -0.28993714 -0.5517033
0.43389517 -0.2724434 -0.30411014 0.39298472 0.44074336 0.3752666 -0.7023004 -0.2243333
0.5559766 -0.36016926 -0.6003278 0.40175015 0.33280328 0.48136327 -0.15909337 -0.2606785
-0.49595132 -0.28748778 0.50614005 -0.15183596 -0.31969166 -0.4129795 -0.13863845 0.44491208
-0.22537214 0.5778946 -0.037550025 -0.40499836 0.40729815 0.4943 0.56891817 -0.26443702
-0.27391154 -0.4459942 0.52413857 0.2741749 -0.48398128 0.71550554 0.3760865 0.6326387
0.39742038 0.28423518 -0.27895764 0.7743042 -0.45534083 0.42749926 0.57271874 0.1708353
-0.069467664 0.39334038 -0.31174272 0.5065895 -0.6186358 -0.2869517 -0.4705523 -0.40441462
0.29809082 0.30285755 0.33703133 0.5583834 -0.3856099 -0.6083408 0.5928687 -0.62257844
-0.5022387 -0.9583477 -0.09976798 0.33371115 -0.37865517 0.075784236 -0.32119069 -0.44645444
-0.43522432 0.6033604 0.5071396 0.11872499 0.35528618 0.494153 -0.5236262 0.50075716
0.4492627 0.31844002 -0.43060067 0.3709507 -0.18143153 -0.13128203 0.93347234 0.3400529
0.07535192 -0.027284365 0.49400234 -0.29901844 -0.18257363 0.5205481 -0.0770514 0.3577035
0.31726086 0.2755671 -0.45892763 -0.5708086 0.41351947 -0.32932717 -0.34016788 0.2997643
0.3935776 0.4667288 0.42115405 -0.31185454 0.520063 0.33954567 0.595452 -0.4350141
-0.3266306 0.3117696 0.7220953 -0.09574048 -0.64688617 -0.3652257 -0.32122084 -0.31515008
-0.29298392 -0.4914162 -1.0103856 0.4535534 0.24060766 0.2758006 0.46918395 0.24614665
0.41616878 0.47679195 -0.3957639 0.2746948 0.38861865 -0.35267144 -0.3541749 -0.35324878
0.49619794 0.34809843 -0.6343565 0.3742745 0.49629992 -0.3442487 -0.3698824 -0.51424694
0.3851356 0.40935224 0.48563564 0.2980121 -0.43015784 0.31928867 -0.12614943 0.4432072
0.2043354 -0.38651848 0.36946246 -0.7330466 -0.15090114 0.4283218 -0.28355092 -0.4633659
-0.53860307 0.11833469 0.36260274 0.34173027 -0.5897142 -0.38813847 0.51665634 -0.49010006
-0.36535844 -0.4687445 -0.4468268 -0.44081548 0.25954312 -0.71764654 0.47046882 -0.36003095
-0.52417177 -0.27156848 -0.42881587 -0.4424546 0.4326618 -0.30156752 0.557418 0.43360242
0.5280792 0.38204256 -0.42426986 -0.38729674 -0.3836208 -0.39454773 0.39485672 0.5836987
-0.36810791 0.6353977 0.6084586 0.78455657 0.09211376 -0.47994888 0.45506003 -0.087656274
0.5269706 0.50690746 0.4845499 -0.65378386 -0.41189224 0.30633295 -0.2997056 -0.44636807
0.4693891 -0.5045346 -0.4472766 -0.42414343 0.60127896 -0.35888866 0.44788307 -0.034910135
00000000: 62af b1be 278a c63d d313 bc3e 33e9 11bf
00000010: 720d 1abe fb3f d3be 5259 dbbe ee92 b4be
00000020: 43c1 dd3e e291 ed3e f720 d7be 268c e83e
00000030: 5f75 c33e 15b2 5fbe c703 9bbe a275 f6be
00000040: edc2 f0be 641e 56bc 0d46 c9be 9403 b9b9
00000050: 09db 10bf c48d eb3e bd39 a23e a759 94be
00000060: 9212 43bf d742 763e 02d1 4e3f 7fce a93e
00000070: f316 c13e 4df6 923e f03f 633e 4ab3 c13e
00000080: 8048 8d3f 8c2f a3bd 2cea 5ebe 5e28 8abe
00000090: 40ff e8bd 3674 b9be a472 94be 6d3c 0dbf
000000a0: 8227 de3e b47d 8bbe 53b4 9bbe 4b35 c93e
000000b0: 1da9 e13e f222 c03e f6c9 33bf a1b7 65be
000000c0: 7c54 0e3f 1b68 b8be 15af 19bf 32b2 cd3e
000000d0: 3165 aa3e 3f75 f63e 5fe9 22be a777 85be
000000e0: 55ed fdbe 9931 93be 6592 013f e37a 1bbe
000000f0: a0ae a3be 0d72 d3be 3df7 0dbe 84cb e33e
00000100: f4c7 66be e7f0 133f 0ece 19bd f25b cfbe
00000110: 6289 d03e e414 fd3e 9fa4 113f 4a64 87be
00000120: 223e 8cbe 5a59 e4be f22d 063f a760 8c3e
00000130: 65cc f7be 5f2b 373f 698e c03e 9cf4 213f
00000140: af7a cb3e 4687 913e 89d3 8ebe cd38 463f
00000150: 6f22 e9be 2fe1 da3e b29d 123f 73ef 2e3e
00000160: 1045 8ebd e963 c93e be9c 9fbe d9af 013f
00000170: ea5e 1ebf 55eb 92be 3bec f0be 6f0f cfbe
00000180: 5c9f 983e 2510 9b3e 5f8f ac3e 37f2 0e3f
00000190: a96e c5be 39bc 1bbf 3ec6 173f 4d61 1fbf
000001a0: b792 00bf 4656 75bf 2853 ccbd 30dc aa3e
000001b0: 17df c1be c434 9b3d 1b73 a4be ad95 e4be
000001c0: b9d5 debe d475 1a3f e7d3 013f 1626 f33d
000001d0: 12e8 b53e 9f01 fd3e 5e0c 06bf 9f31 003f
000001e0: c305 e63e 920a a33e b177 dcbe 40ed bd3e
000001f0: 30c9 39be cc6e 06be 0bf8 6e3f 6a1b ae3e
00000200: 1c52 9a3d 7683 dfbc e0ed fc3e f218 99be
00000210: 95f4 3abe a442 053f 20cd 9dbd ea24 b73e
00000220: 0470 a23e 2217 8d3e 90f8 eabe 8320 12bf
00000230: d3b8 d33e 929d a8be 7c2a aebe b57a 993e
00000240: 0183 c93e 14f7 ee3e 81a1 d73e 66ab 9fbe
00000250: d922 053f eed8 ad3e 8b6f 183f 2bba debe
00000260: 203c a7be 44a0 9f3e 3ddb 383f 9613 c4bd
00000270: 559a 25bf ddfe babe 0f77 a4be 5a5b a1be
00000280: fd01 96be e79a fbbe 5154 81bf 2738 e83e
00000290: db61 763e bc35 8d3e e138 f03e de0d 7c3e
000002a0: 1314 d53e 131e f43e 91a1 cabe cca4 8c3e
000002b0: 06f9 c63e 5a91 b4be 6a56 b5be 06dd b4be
000002c0: a80d fe3e f539 b23e 3065 22bf e8a0 bf3e
000002d0: 061b fe3e 5e41 b0be 3a61 bdbe b0a5 03bf
000002e0: 7e30 c53e 9e96 d13e 3ca5 f83e 0b95 983e
000002f0: a63d dcbe ce79 a33e 512d 01be 0eec e23e
00000300: 4d3d 513e c0e5 c5be 2f2a bd3e f1a8 3bbf
00000310: d485 1abe ff4c db3e 962d 91be 4c3e edbe
00000320: e4e1 09bf 7559 f23d 11a7 b93e 45f7 ae3e
00000330: 83f7 16bf 16ba c6be 9743 043f 65ee fabe
00000340: 4310 bbbe 47ff efbe 7bc6 e4be 91b2 e1be
00000350: d6e2 843e afb7 37bf 4ae1 f03e fa55 b8be
00000360: 1f30 06bf 060b 8bbe c18d dbbe 6989 e2be
00000370: d985 dd3e 0f67 9abe f2b2 0e3f 2301 de3e
00000380: 3330 073f 159b c33e e639 d9be c24b c6be
00000390: f269 c4be 2902 cabe a92a ca3e 476d 153f
000003a0: a478 bcbe 6ca9 223f f1c3 1b3f b3d8 483f
000003b0: 24a6 bc3d dcbb f5be a1fd e83e 2285 b3bd
000003c0: 8ce7 063f b0c4 013f ed16 f83e 615e 27bf
000003d0: 8ae3 d2be acd7 9c3e 0373 99be 5b8a e4be
000003e0: c553 f03e 2e29 01bf 7001 e5be 5429 d9be
000003f0: 6bed 193f 41c0 b7be ee50 e53e eefd 0ebd

classifier_p.bias f4 [6]
0.0633171 -0.009766932 0.05200201 -0.07109802 0.011782558 -0.015682971
00000000: 65ac 813d 7b05 20bc 0f00 553d d79b 91bd
00000010: a10b 413c 9379 80bc

classifier_v.weight f4 [1, 130]
0.053031642 -0.00042861735 0.06758877 -0.04290987 5.4596836e-05 -0.06341856 -0.024445103 0.071102895
0.033074062 -0.0075108474 -0.035561077 -0.0420601 0.048620094 0.03714925 -0.056826405 -0.010087768
0.07949638 -0.00036377547 0.0124323135 0.0017503756 0.072635636 0.029544277 -0.040155806 -0.08343559
-0.019677408 0.0035500224 0.007102424 -0.040409066 0.06787256 0.04004445 -0.0105129955 0.04096241
0.00074983784 -0.0050921845 -0.023403024 -0.072017 0.03460399 0.056604356 0.026495056 0.03834046
-0.01876042 0.017737724 -0.08353303 -0.05766978 0.023595437 -0.050691023 -0.018145207 0.04535542
0.055696424 -0.02823061 -0.0040033427 0.05183201 0.09099555 -0.031131083 0.027676143 0.039960176
-0.009309127 -0.071776025 0.019362472 0.031075452 0.007120992 0.04269216 0.039805442 0.05280177
0.08226078 0.0024116016 -0.0006687936 0.06947659 -0.029469792 0.035794087 0.010154217 0.021950757
-0.080041625 0.07485032 0.013565068 0.018968822 -0.00015076256 0.019786276 -0.064282015 -0.05416881
0.036171507 0.054068897 0.06688705 0.0004048223 -0.03636166 0.06929063 -0.03444946 -0.0032992593
-0.056106303 -0.026768524 0.028104022 0.06537715 -0.011774843 0.07214483 -0.0053377966 0.051663946
-0.044462606 -0.035267226 -0.08988399 0.032817356 -0.02047831 0.0013072583 -0.053681232 0.03347262
0.0050004306 -6.9751084e-05 -0.0001618438 0.07191979 0.05806916 0.00032777432 -0.013933893 -0.036995653
0.05845359 -3.410221e-05 -0.023090372 0.027275873 0.02810806 0.023216525 0.008824452 -0.07535571
0.035765443 0.030237613 -0.0016446691 -0.006178715 -0.0059051453 0.046894938 -0.00053970184 0.050164126
-0.14905378 -0.0043159514
00000000: b537 593d 0cb8 e0b9 fb6b 8a3d 43c2 2fbd
00000010: e8fe 6438 97e1 81bd 1941 c8bc 659e 913d
00000020: ab78 073d 8e1d f6bb 7ea8 11bd 3647 2cbd
00000030: dd25 473d d029 183d cec2 68bd 2a47 25bc
00000040: 00cf a23d 1eb9 beb9 e7b0 4b3c dc6c e53a
00000050: fec1 943d d706 f23c 6a7a 24bd 47e0 aabd
00000060: 8432 a1bc 7ea7 683b 73bb e83b fa83 25bd
00000070: c500 8b3d a605 243d b33e 2cbc 33c8 273d
00000080: c490 443a 57dc a6bb b3b7 bfbc a67d 93bd
00000090: eabc 0d3d f8d9 673d 290c d93c e30a 1d3d
000000a0: 74af 99bc b44e 913c 5d13 abbd 2637 6cbd
000000b0: 384b c13c 64a1 4fbd 42a5 94bc 9bc6 393d
000000c0: ef21 643d e143 e7bc 792e 83bb cd4d 543d
000000d0: e05b ba3d 9d06 ffbc 14b9 e23c 48ad 233d
000000e0: 4f85 18bc 4fff 92bd 0c9e 9e3c f291 fe3c
000000f0: 3657 e93b f9dd 2e3d 080b 233d ab46 583d
00000100: 5778 a83d f60b 1e3b fb51 2fba be49 8e3d
00000110: a26a f1bc d29c 123d df5d 263c 13d2 b33c
00000120: ddec a3bd 204b 993d 0540 5e3c 8164 9b3c
00000130: 0416 1eb9 d416 a23c 4aa6 83bd 1de0 5dbd
00000140: 9328 143d 5977 5d3d 14fc 883d 543e d439
00000150: f7ef 14bd 3fe8 8d3d e11a 0dbd 6338 58bb
00000160: b9cf 65bd aa49 dbbc 683a e63c 75e4 853d
00000170: 45eb 40bc abc0 933d afe8 aebb 939d 533d
00000180: 6c1e 36bd 5e74 10bd 1915 b8bd 7e6b 063d
00000190: 21c2 a7bc 4f58 ab3a dae0 5bbd 961a 093d
000001a0: a7da a33b 5447 92b8 9db4 29b9 af4a 933d
000001b0: edd9 6d3d 20d9 ab39 fc4a 64bc c188 17bd
000001c0: 086d 6f3d f808 0fb8 0528 bdbc a771 df3c
000001d0: e042 e63c 9530 be3c 6f94 103c 1854 9abd
000001e0: c97e 123d dfb4 f73c f091 d7ba d176 cabb
000001f0: f37f c1bb e814 403d c77a 0dba e678 4d3d
00000200: 8ea1 18be d36c 8dbb
