model/model_test.pth (torch, 17634 bytes, 10 tensors)

weight f4 [200, 1, 1, 1]
000000 9c de 5f 3f 70 be cf 3d 60 d1 8b be 04 81 28 bf
       0.8744905 0.10143745 -0.27308178 -0.6582186
000010 80 56 a9 be 30 f4 3d bf a4 16 c5 3e 94 3f 14 bf
       -0.33073807 -0.74200726 0.38493836 -0.5790951
000020 4a 04 0d 3f e0 00 c9 3e 6e ca 4a 3f 18 5f b2 3e
       0.5508467 0.3925848 0.79215133 0.34838176
000030 50 c9 cf 3e 00 77 6e bd 04 99 14 bf 90 0d 4f 3e
       0.40583277 -0.058218956 -0.58045983 0.20220017
000040 40 2e 31 be 90 aa e2 3d d8 94 74 3f 28 91 59 bf
       -0.17302799 0.110676885 0.9553962 -0.84987116
000050 28 02 3a bf a4 da 07 3f d0 7c 7b 3e d2 4f 52 bf
       -0.7265954 0.53067994 0.24559331 -0.82153046
000060 2c 96 5c 3f 18 78 15 3e e0 d7 fe 3d fa c6 56 3f
       0.86166644 0.14596593 0.12443519 0.83897364
000070 ec a3 1e bf 8c 7c 4e 3f f4 f3 cb be d6 9f 3d bf
       -0.61968875 0.80658793 -0.3983456 -0.74072015
000080 28 7f cb 3e e0 b4 6b bd 98 5e 13 3e c2 77 07 bf
       0.3974545 -0.057545543 0.14391553 -0.5291711
000090 b8 36 42 3f b8 d0 a6 be 00 20 ce b9 20 f7 77 3e
       0.75864744 -0.32581115 -0.00039315224 0.24215364
0000a0 d8 6b 43 be d0 26 8e 3d 62 5a 72 3f f8 dc 0b be
       -0.19084108 0.06940997 0.94669163 -0.13658512
0000b0 d8 52 79 3e 80 d0 98 3e f2 4a 02 3f 5a b9 53 3f
       0.24348009 0.29846573 0.5089561 0.827047
0000c0 fc ed 6c bf 50 55 f6 3d 48 7d 62 bf 56 9f 5b bf
       -0.92550635 0.12027991 -0.88472414 -0.8579
0000d0 a8 73 17 be 08 79 73 3f 58 8f 79 be 7c ec 74 bf
       -0.14790213 0.95106554 -0.24371088 -0.95673347
0000e0 50 8e 84 3d 08 a7 53 3f 6e 2c 4c bf 56 2c 1d 3f
       0.064724565 0.82676744 -0.79755294 0.61395776
0000f0 50 29 a9 3d b8 f8 77 3f 90 4f bb 3e 34 e4 42 bf
       0.08259833 0.9686389 0.3658414 -0.7612946
000100 5a 19 3c bf 98 6e a3 be 5c 5d 67 bf 50 40 29 3f
       -0.73476183 -0.31920314 -0.9037683 0.6611376
000110 00 c2 34 3b 3a e7 25 3f c0 62 29 3d 14 c5 ef be
       0.0027581453 0.6480595 0.04135394 -0.46830046
000120 8e 9f 2f bf c0 96 9c bc ae f8 57 bf 46 09 2d 3f
       -0.68602836 -0.019114852 -0.8436383 0.67592275
000130 c0 68 1d 3f 28 49 11 bf 12 43 51 3f 74 63 ae be
       0.6148796 -0.5675225 0.81742966 -0.34060252
000140 e0 c2 bf bd 10 ad 69 3e 50 4c e7 bd fa 08 3a 3f
       -0.09363341 0.22819924 -0.11293852 0.7266995
000150 14 2a 03 bf e2 89 68 bf a0 d5 02 3e d0 4a 5e be
       -0.5123608 -0.9083539 0.12776804 -0.21708226
000160 58 8e 2b bf 34 16 fe 3e 08 81 e5 be b0 65 58 be
       -0.67014074 0.49626315 -0.44825006 -0.2113254
000170 80 05 54 bf d0 cf 14 bf 00 22 b8 3d 00 13 e9 be
       -0.8282089 -0.58129597 0.0899086 -0.45522308
000180 70 18 29 3f 1c 6a a6 3e 42 38 3f bf 60 bc 45 bf
       0.66052914 0.3250283 -0.7469522 -0.7724056
000190 c2 92 4d bf 2e 13 4a bf 8e 2d 28 bf 78 21 2b 3f
       -0.8030206 -0.78935516 -0.6569451 0.66847944
0001a0 5e bf 0a bf 48 fa 46 3f 18 f2 31 3f b4 70 1f bf
       -0.54198253 0.7772565 0.6951003 -0.62281346
0001b0 e8 14 37 3f 3e 9e 1d bf f0 4f 30 3f 00 1e 01 3c
       0.71516275 -0.61569583 0.68871975 0.007880688
0001c0 6e 57 05 3f 36 07 4d bf 2e 2a 29 3f 68 31 c2 be
       0.5208653 -0.8008913 0.66079986 -0.3792832
0001d0 46 6b 5b bf 4c 63 a8 be ac 53 66 3f 38 56 00 3e
       -0.8571056 -0.32888258 0.89971423 0.1253289
0001e0 34 c2 cd 3e e8 b0 61 be 70 b9 80 bd 8c 42 a7 be
       0.40187228 -0.2204014 -0.062853694 -0.3266796
0001f0 34 6c 0d bf 2c f2 5b bf 7a 45 1c 3f 50 8c 03 3e
       -0.5524323 -0.859164 0.6104351 0.12846494
000200 c8 26 45 3f 90 08 10 3e 30 6a 1a 3e 58 71 31 bf
       0.770123 0.14065766 0.1507957 -0.69313574
000210 14 b9 14 bf ca fa 67 bf d0 8f 95 be 22 c3 36 bf
       -0.58094907 -0.9061705 -0.29211283 -0.713915
000220 28 ac 60 bf d0 b3 fc 3d 64 ef f8 be 18 19 9f be
       -0.8776269 0.12338984 -0.4862014 -0.31073833
000230 58 d1 fd be cc a8 3e 3f 80 d9 e0 3c 20 17 50 3e
       -0.4957378 0.74476314 0.027447462 0.20321321
000240 b8 3d e3 be 00 37 92 bb 66 16 48 bf c8 52 4d 3e
       -0.44383025 -0.004462123 -0.7815918 0.2005111
000250 7c 14 d0 3e cc bf 84 3e ca 69 49 bf aa 2d 0e bf
       0.40640628 0.2592758 -0.78677046 -0.5553843
000260 be 97 03 bf 40 47 29 bd 00 38 59 bd 92 1a 1b bf
       -0.51403415 -0.041327715 -0.05303192 -0.6058742
000270 3e 72 34 bf 2e 4a 41 3f cc f8 f4 be 74 ba 1e bf
       -0.7048682 0.75503814 -0.47846067 -0.62003255
000280 a0 ab fc 3e 66 5d 23 3f 14 c7 ff be 00 b9 32 bf
       0.4934969 0.6381439 -0.49956572 -0.6981354
000290 68 90 5b bf f4 8f 65 bf 4c 2e e8 3e d4 52 0c 3f
       -0.8576722 -0.8967278 0.45347822 0.54813886
0002a0 ea 38 41 3f f8 75 19 3e ac 6e ed 3e 3a 82 5d bf
       0.7547747 0.14986408 0.46373498 -0.86526835
0002b0 80 b0 89 bc 68 86 f2 3e e0 9a 12 bf 1c b2 53 3f
       -0.016807795 0.4736817 -0.5726757 0.8269365
0002c0 00 2c 66 3f 70 20 a9 3d 9c 75 ca 3e 82 3a 7f 3f
       0.8991089 0.0825814 0.39542854 0.9969865
0002d0 40 68 44 3e 80 c5 bc be ec 4d 74 bf 24 4d 68 bf
       0.19180393 -0.3686943 -0.954314 -0.9074271
0002e0 00 cb 8d bc 34 b9 6e 3f 88 ba 5c bf a8 b8 66 3e
       -0.017308712 0.9325135 -0.86222124 0.22531378
0002f0 02 4e 6e 3f 4e 4d 44 bf c0 02 1d 3e c0 56 2e 3d
       0.9308778 -0.7668046 0.1533308 0.0425632
000300 86 9e 4b 3f 00 b3 75 bf c4 68 63 bf 80 7a bf 3d
       0.7953876 -0.9597626 -0.88831735 0.09349537
000310 1c c0 23 3f f4 3d 56 3f e0 4c dd 3d 4a 6e 5b 3f
       0.6396501 0.8368828 0.10805678 0.8571516

bias f4 [200]
000000 22 21 20 bf 6a 7b 7e bf 80 1c d9 3c f0 50 41 bf
       -0.62550557 -0.99407065 0.026502848 -0.75514126
000010 08 67 44 bf e0 e8 eb be 86 fb 76 bf 00 76 0a 3c
       -0.76719713 -0.46076107 -0.96477544 0.008450985
000020 78 9b ed 3e 02 f1 4b 3f 88 0a 0d be 0c 95 e0 3e
       0.46407676 0.79664624 -0.13773549 0.43863714
000030 84 20 46 3f 8a af 0f bf 80 16 58 be 8c 25 35 3f
       0.77393365 -0.56127226 -0.21102333 0.70760417
000040 c6 d4 4d 3f 94 e0 a1 be 5e dc 53 bf d0 a1 69 bf
       0.8040279 -0.31616652 -0.8275813 -0.9126253
000050 b0 e2 2e be c4 4f b6 be a0 8c 5e be 88 82 61 bf
       -0.17078662 -0.3560773 -0.21733332 -0.880898
000060 80 48 c9 3e 1e 47 74 3f 04 96 33 3f b4 8f 3f 3f
       0.39313126 0.95421016 0.7015078 0.7482865
000070 e2 a3 5c 3f 96 9c 34 3f c0 e0 c8 be 34 7f a8 3e
       0.86187565 0.7055143 -0.3923397 0.32909548
000080 fa ab 71 3f 70 7f c6 3e a4 6e c7 3e 84 50 85 be
       0.9440304 0.38769102 0.389516 -0.2603799
000090 fc d6 bc 3e 34 7d 2f bf 7a 87 40 bf d2 6e 5b bf
       0.3688277 -0.6855042 -0.7520672 -0.85715973
0000a0 4a 30 18 bf fc f0 75 bf 38 16 2c be da 0f 32 bf
       -0.59448683 -0.9607084 -0.16805351 -0.6955544
0000b0 7c 13 fb 3e de 11 5b 3f a8 b7 92 3e 6a 9f 05 3f
       0.49038303 0.8557414 0.28655744 0.5219637
0000c0 d2 26 6c bf 84 84 30 bf a8 30 15 be 0c 66 5f 3f
       -0.92246735 -0.689522 -0.14569342 0.87265086
0000d0 da 0f 74 3f b8 32 f4 3e 80 aa 49 3d b4 71 71 bf
       0.9533669 0.47694945 0.049234867 -0.9431412
0000e0 80 f6 7a be 88 c2 cb 3e e0 8f fb bd 2c bb 05 bf
       -0.24508095 0.39796853 -0.12283301 -0.52238727
0000f0 54 0f 0b bf da e7 7f 3f 5c 5a b3 be 00 e4 79 3b
       -0.54320264 0.9996315 -0.35029876 0.0038130283
000100 50 22 a4 3e 84 eb b1 be 98 8e 7d be 62 6a 57 3f
       0.32057428 -0.34749997 -0.24761426 0.841467
000110 06 f5 04 bf a0 e6 45 3e 00 e1 f3 3e c0 01 0f bf
       -0.51936376 0.19326258 0.476326 -0.55862045
000120 94 fb 99 be 58 3e cd be 08 ea 0a be 2a fd 73 bf
       -0.3007475 -0.40086627 -0.13565838 -0.9530817
000130 2e a7 0c 3f 84 2e c2 be a0 54 b3 be 38 c5 d7 be
       0.54942596 -0.37926114 -0.350255 -0.42142653
000140 2e 3d 3d 3f f8 e1 8e be 00 88 00 be b6 41 71 bf
       0.7392148 -0.27906775 -0.1255188 -0.9424089
000150 24 52 ae be 70 e3 d6 3d 48 41 7f bf 90 c6 81 3d
       -0.34047043 0.10492599 -0.99708986 0.06336701
000160 7c e4 ee be da 22 09 3f f0 ee 8a bd 60 95 75 be
       -0.46658695 0.53568804 -0.06783855 -0.23982763
000170 8c 70 7a 3f 48 3a 0f bf 48 4f 8e 3e 80 59 d7 3e
       0.9782798 -0.55948305 0.27794862 0.4206047
000180 de de 30 bf f4 58 44 bf 94 a5 db be 24 72 86 3e
       -0.6909007 -0.7669823 -0.42899764 0.26258957
000190 e0 cb 1f bd 80 b6 6d bd d6 58 3f bf f8 4a 65 be
       -0.03901279 -0.058035374 -0.7474493 -0.2239188
0001a0 80 f3 4a 3f a4 e3 fb be 26 05 7a bf e8 9c 61 3f
       0.792778 -0.49197114 -0.97664106 0.88130045
0001b0 10 1a de be 40 69 d9 be 22 80 2e 3f cc 6d c0 3e
       -0.4337926 -0.42463112 0.68164265 0.37583768
0001c0 70 aa f7 bd e6 47 6a bf 0a 0f 3a 3f 10 48 3f be
       -0.12093055 -0.9151596 0.726792 -0.18679833
0001d0 10 41 50 bf 4c c1 2c bf f4 da e6 be 50 02 e2 3d
       -0.8134928 -0.6748245 -0.45088923 0.11035597
0001e0 62 a7 5c bf 56 cf 3a 3f 3c 3c d9 be 04 d9 a8 3e
       -0.86192906 0.7297262 -0.42428768 0.3297807
0001f0 ae 1e 06 3f fc 53 41 bf b4 ad 6c 3f a6 5e 06 bf
       0.52390563 -0.75518775 0.9245255 -0.5248817
000200 84 36 c3 3e 70 b1 60 3f d2 38 57 bf 40 08 50 3f
       0.3812753 0.8777075 -0.84071076 0.8126259
000210 c8 a2 41 3e 80 cf e3 3c 10 e0 23 3f da 7b 0d bf
       0.18909752 0.027808905 0.6401377 -0.5526711
000220 9c ee 7b 3f 20 91 77 bf e8 b0 44 be ec 8f 64 3f
       0.98410964 -0.9670582 -0.1920811 0.8928211
000230 a2 10 20 bf 98 53 b1 be f8 ae 72 be e4 e5 26 bf
       -0.6252538 -0.3463409 -0.23699558 -0.65194535
000240 04 40 d7 3e f0 e9 42 3f fc a3 0a 3f e4 60 c9 3e
       0.42041028 0.7613821 0.5415647 0.39331734
000250 02 9f 7b bf 1c 49 a4 3e d8 cd 9a 3e 36 f3 2c bf
       -0.982895 0.32087028 0.3023517 -0.6755861
000260 56 6a 6d bf 96 16 74 bf 8a 31 7a 3f 3c ad 8b be
       -0.9274038 -0.95346963 0.9773184 -0.27280605
000270 d4 7b 43 bf a0 48 38 3d 50 d0 d6 be 18 a2 29 bf
       -0.7636082 0.044991136 -0.41955805 -0.6626296
000280 00 70 aa 39 28 73 db be 20 58 e7 bd b4 34 14 3f
       0.00032508373 -0.42861295 -0.112961054 0.5789292
000290 b0 02 18 bf e0 13 cb 3e 52 c5 60 3f a2 92 6d bf
       -0.593791 0.396636 0.87801087 -0.9280187
0002a0 74 d8 5f 3f dc f1 5a bf 74 a3 9e 3e 1c ea 9a be
       0.87439656 -0.855253 0.3098408 -0.30256736
0002b0 d0 06 07 bf b4 06 af 3e 58 d6 71 be 70 f3 91 bd
       -0.5274477 0.34184802 -0.23616922 -0.0712651
0002c0 a8 33 41 3e d2 0f 5b bf c2 a3 7e 3f 74 77 e2 be
       0.18867362 -0.85571015 0.99468625 -0.4423176
0002d0 68 6a 5e 3f 10 93 47 3e f0 bb 05 bf 94 4c 4b bf
       0.86881113 0.19489694 -0.52239895 -0.79413724
0002e0 66 19 79 3f 68 78 fb be 66 13 49 bf 2e 27 68 3f
       0.9730438 -0.491153 -0.78545225 0.90684783
0002f0 02 c6 65 bf 14 b7 eb 3e 40 33 c0 bd b8 e0 24 be
       -0.8975526 0.46038115 -0.09384775 -0.16101348
000300 36 22 01 bf 54 6b 05 bf 60 5c 9a bd 3e ab 03 bf
       -0.50442827 -0.52116895 -0.075371504 -0.5143317
000310 00 1f 11 bd 40 5f 69 be 20 66 2a 3f a2 7a 05 3f
       -0.035429955 -0.22790241 0.6656208 0.5214025

weight f4 [1, 200, 2, 1]
000000 2c 9d 68 3c 80 b1 6d bc fa 7e bf 3c 7d 64 06 3d
       0.014197629 -0.014507651 0.023375977 0.032810677
000010 22 a2 a5 3c b3 24 bf bc 5a 19 ba bc 86 9a f6 3c
       0.020218913 -0.02333293 -0.022717167 0.03010298
000020 37 a2 9f bc d7 24 bc bc 80 83 a4 3b 2d 76 11 bd
       -0.01948653 -0.022966785 0.005020559 -0.03551309
000030 cd cf 2b 3d a0 28 27 bc 80 3a 72 ba 08 af 16 bd
       0.04194622 -0.010202557 -0.00092402846 -0.036788017
000040 dd 2f b2 bc 67 d1 25 3d 3b 1a 1d 3d ad 17 33 bd
       -0.021751339 0.040482905 0.038355093 -0.04372375
000050 a7 a4 2e 3d 5a b8 ba 3c 68 9b bf bb 51 54 11 3d
       0.042637493 0.022792984 -0.0058473833 0.0354808
000060 00 4c af 39 20 d0 23 bd ab 96 1f bd 3f 57 2d bd
       0.00033435225 -0.039993405 -0.038962048 -0.042319532
000070 6d bc 2f 3d a3 33 a5 bc 36 6c 24 bd a7 b1 f0 bc
       0.042904306 -0.020166224 -0.04014226 -0.029381586
000080 eb e1 17 bd 00 38 8a 3a ba 27 05 bd 63 9c a6 bc
       -0.037080687 0.0010545254 -0.03250859 -0.020338243
000090 d0 6b 97 bc 33 14 cd bc 09 a3 28 3d a2 3a 89 3c
       -0.018484026 -0.025034046 0.041171107 0.016751591
0000a0 d8 84 2c bd 07 76 2f 3d 4a 83 96 3c e9 fe 31 3d
       -0.042118877 0.04283717 0.01837315 0.043455992
0000b0 f1 ec 36 3d 46 52 88 bc c2 d7 9e 3c c0 bf e3 3a
       0.04465956 -0.016640794 0.01938999 0.0017375872
0000c0 1e 48 df 3c d6 0a ce 3c 55 67 45 bd a2 1e 1f bd
       0.027256068 0.025151651 -0.04819425 -0.038847573
0000d0 57 84 05 3d d8 d4 ea bb 88 d7 0c 3c 98 42 39 bd
       0.032596912 -0.0071664862 0.0085963085 -0.045229524
0000e0 10 12 c8 bc 30 36 d7 bb 0b 5a 28 bd e0 2f 11 3b
       -0.024422675 -0.006567739 -0.041101497 0.002215378
0000f0 80 aa 55 ba 44 66 7c 3c 2c a2 14 bc d0 56 2f bd
       -0.00081507117 0.015405241 -0.009071868 -0.0428074
000100 62 6d 20 bd b6 1f b2 3c 24 ce 6b 3c 43 f6 a6 bc
       -0.039166816 0.021743637 0.0143924095 -0.020381099
000110 09 c9 2b 3d 50 d7 a5 bb a0 0a 27 bb b2 b7 c4 3c
       0.04193977 -0.0050610676 -0.002548851 0.024013374
000120 3f d3 04 3d d7 b3 b4 bc 60 00 1e bd 87 db 46 3d
       0.032428022 -0.02205841 -0.038574576 0.0485492
000130 0c 30 51 bc fe 7d 07 bd 30 7b ad bc 9e f3 26 bd
       -0.012767803 -0.03307914 -0.021176904 -0.040759675
000140 9f 73 21 3d 20 cf 16 bb 90 30 ca 3b da 1b c1 bc
       0.039416905 -0.002301164 0.00617034 -0.023572851
000150 c7 38 3c 3d c2 db 90 3c 80 40 ac bc 40 67 1d 3a
       0.045952585 0.017682914 -0.02102685 0.000600446
000160 00 a0 dc b6 80 13 45 3a 4d c5 10 3d 92 50 b7 3c
       -6.5751374e-06 0.00075178593 0.03534441 0.022377286
000170 04 09 6f 3c e0 a8 46 bb aa d1 12 bd 16 e0 89 3c
       0.014589552 -0.003031306 -0.035844482 0.016830485
000180 8b 8e 44 3d 20 17 3e 3b f1 5d 43 3d b4 e0 75 bc
       0.047987502 0.0029005483 0.04769701 -0.015007187
000190 91 94 34 3d e2 0e fb 3c c8 e8 2c bd 58 77 2b bc
       0.044086996 0.030646745 -0.042214185 -0.0104654655
0001a0 4e 31 8a 3c ca bb d6 3c 43 70 12 3d 02 6b 4b bd
       0.016869213 0.026212592 0.035751592 -0.049662597
0001b0 0a 63 d9 3c cf 21 21 3d 48 49 31 bd 52 9e d1 3c
       0.026536483 0.039338883 -0.043282777 0.025588188
0001c0 93 20 24 3d e1 a7 47 3d 54 c6 04 bc 1a ca a3 3c
       0.040070128 0.048744086 -0.008103926 0.01999383
0001d0 06 fd 0d bd 46 6b dd 3c 48 fa 6b bc 30 38 cf bc
       -0.03466513 0.027028691 -0.014402933 -0.025295347
0001e0 03 de 21 bd bc ca 64 3c a8 bf b4 3b d0 3f 30 bb
       -0.039518367 0.013964351 0.0055160113 -0.0026893504
0001f0 6e 50 a0 3c 28 8c c6 3b a0 8e b3 bc 6d 42 df bc
       0.019569602 0.0060591884 -0.021918595 -0.027253354
000200 69 39 46 3d 9e ee c8 3c f2 d8 3b bd 58 50 52 bc
       0.048394594 0.024527844 -0.045861192 -0.012836538
000210 80 5b 02 3c 94 73 6c bc b0 d9 99 3b 64 10 61 3c
       0.007956386 -0.014431853 0.00469514 0.013736818
000220 40 22 8f 3b 1a bc f7 bc fa 4d 80 3c 0a f0 e1 3c
       0.0043680966 -0.030241061 0.015662182 0.02758028
000230 42 fb bf 3c b0 79 4b bb 42 e0 c3 3c 6e 3e e7 3c
       0.023435239 -0.0031047873 0.023910645 0.028228011
000240 5a 6e d6 3c 75 d9 0a bd 2b 62 19 bd 4d 30 24 3d
       0.026175667 -0.03389879 -0.037447136 0.040085126
000250 53 6d 32 3d b6 24 a4 3c 58 e4 84 3b 57 40 07 3d
       0.04356129 0.020037036 0.004055541 0.033020344
000260 9d a3 12 3d 0d 9b 35 bd 6c f0 00 3c fb b2 1e 3d
       0.035800565 -0.04433732 0.007869821 0.038744908
000270 78 63 10 bd 32 be ab 3c 3b 39 15 3d b0 fa 24 bb
       -0.03525111 0.020964716 0.036431532 -0.0025173835
000280 30 9d 68 3b 4f ed 14 3d ac 45 94 bc d4 0e 2b 3c
       0.0035494082 0.036359128 -0.018099628 0.010440547
000290 fd 58 36 bd 89 e9 49 3d 1d eb 03 3d 8c 71 24 3c
       -0.04451846 0.049294982 0.032206643 0.010036837
0002a0 bf 18 3e 3d a9 ed 07 3d b3 07 28 3d a6 6a 93 bc
       0.04641032 0.033185635 0.041022968 -0.01799519
0002b0 65 52 00 bd db 97 28 bd f6 6b c5 3c 70 71 d7 bc
       -0.031328578 -0.041160446 0.024099331 -0.026299208
0002c0 60 9e f7 3a 7a 2d 0e bd ba d7 c0 bc 0b 05 31 bd
       0.0018891804 -0.03471134 -0.023540366 -0.0432177
0002d0 a3 f6 11 3d c8 f5 30 3c e7 5c 09 3d e8 79 97 3b
       0.0356356 0.010800786 0.033535864 0.0046226867
0002e0 46 4a f5 3c d3 de 1c bd ba 6d 11 bd 48 a9 31 bc
       0.029942643 -0.03829844 -0.035505034 -0.010843582
0002f0 02 6f d7 3c e2 89 20 bd f4 dc 78 bc 28 4b 25 3c
       0.02629805 -0.039193995 -0.015189398 0.010088719
000300 9a c1 c1 3c 90 72 fb 3b 16 14 d5 3c 4c c4 21 bc
       0.023651887 0.007673569 0.026010554 -0.009873461
000310 78 ad 08 bc 73 b8 b3 bc 80 a9 8b 3b 93 61 1c 3d
       -0.008342139 -0.021938538 0.0042621493 0.03817899
000320 bf 08 0d 3d 1a 9c a4 3c a0 6f d9 ba 73 74 25 bd
       0.03443217 0.020093966 -0.0016589053 -0.040394258
000330 bd fb 22 bd 89 ed 3f 3d 46 61 d8 3c d8 33 87 3b
       -0.039790858 0.04685739 0.026413571 0.0041260533
000340 7a 20 e5 3c 2c 35 3d 3c 6c ce 79 bc 02 2a f0 3c
       0.027969588 0.011548322 -0.015246969 0.029316906
000350 60 34 77 bc af e6 28 3d 0c 06 15 3c 6d e8 ea bc
       -0.015088171 0.041235622 0.00909568 -0.028675282
000360 c7 1b 47 bd 38 15 03 bc 72 88 85 3c d7 e5 22 3d
       -0.048610475 -0.008000664 0.016300414 0.039769974
000370 48 f5 22 bc 00 46 ac b8 a0 20 65 3b 1c 60 59 3c
       -0.009946175 -8.214638e-05 0.0034962073 0.013267543
000380 2b 86 1d bd 32 7f a4 3c b0 14 b2 bc 34 45 02 3c
       -0.03845803 0.020080183 -0.02173838 0.00795107
000390 66 8d ed 3c f1 b9 03 3d a0 37 5b 3b 03 f2 a0 bc
       0.028998088 0.03215975 0.0033449903 -0.01964665
0003a0 ac 9b 7f 3c e0 75 59 bc 42 d5 80 3c f4 74 24 3c
       0.01560108 -0.0132727325 0.01572669 0.010037649
0003b0 3a 91 9e 3c da 58 e5 3c c0 fc f7 ba 9a ab 91 3c
       0.019356359 0.02799647 -0.001891993 0.017782021
0003c0 9b d7 2a 3d 2a 63 a9 bc d6 02 ac 3c 80 67 62 ba
       0.041709524 -0.020677168 0.020997446 -0.00086366385
0003d0 a0 0e bd ba b2 73 b1 3c 33 49 ca bc 10 60 f5 3b
       -0.0014423914 0.021661613 -0.024693107 0.007488258
0003e0 32 02 4c bd f7 e0 45 bd 60 7f 8c bc 60 59 1c bb
       -0.04980678 -0.048310246 -0.01715058 -0.0023856983
0003f0 44 8a 08 bd de 26 21 bd 76 ac 2c bd ac e9 3f bc
       -0.033334985 -0.039343707 -0.04215666 -0.011713427

weight f4 [128, 6]
000000 f0 c8 c7 3d b0 f1 c4 3d e4 e2 07 3e b4 52 37 3e
       0.09755123 0.09616411 0.13270146 0.17902642
000010 38 cb e5 3d e2 21 aa be cf f2 ba be 5e 46 c6 be
       0.112204015 -0.33228976 -0.36513373 -0.3872556
000020 58 cf 42 bd 80 25 80 be ce b4 93 be cc 9d 89 3e
       -0.04756102 -0.2502861 -0.2884888 0.26878202
000030 58 40 89 3e 00 dc c5 bd 80 5e e2 bb 19 08 95 be
       0.26806903 -0.09661102 -0.006908238 -0.2910774
000040 e8 f7 a1 3e 26 18 89 be 7b b6 8b be 78 35 38 bd
       0.3163445 -0.26776236 -0.2728766 -0.044972867
000050 28 2d 26 3e c8 b0 c2 3e e0 ee 00 bd 9f f9 9c be
       0.16228163 0.38025498 -0.03147781 -0.30659196
000060 a0 53 0f 3d 20 6f cc be f0 6b ab be 28 68 de 3d
       0.03499186 -0.39928532 -0.33480787 0.1085971
000070 b0 31 6f 3e 98 b7 7a 3e 76 c2 22 be 95 f1 5f be
       0.23358798 0.24484098 -0.15894493 -0.218695
000080 28 39 a3 3e 78 97 a0 3e 70 88 d2 bd 78 66 cb be
       0.31879544 0.3136556 -0.1027993 -0.39726615
000090 dc a7 8e 3e 84 7a 63 be a8 32 a9 bd 9d 0c c6 be
       0.27862442 -0.22214705 -0.08261615 -0.38681498
0000a0 60 b2 0d 3e 28 1a a1 3e a0 c1 bf be c4 87 06 3e
       0.13837576 0.31465268 -0.37452412 0.13137728
0000b0 30 9b 7e 3d 90 6e a5 be 8c df ae be d8 ec 20 3e
       0.062159717 -0.32310915 -0.34154928 0.15715349
0000c0 94 a1 20 be 36 53 0c be 38 0b f4 3d 50 1c 93 bd
       -0.15686637 -0.13703617 0.11916202 -0.071831346
0000d0 b8 62 40 3d 4c 02 b7 be 20 09 3a bd fc 34 c2 be
       0.046969146 -0.3574394 -0.04541886 -0.3793105
0000e0 60 73 24 bd a2 d6 0b be f6 92 94 3e e6 c1 cb 3e
       -0.040149093 -0.13656095 0.29018372 0.3979637
0000f0 80 9f d9 3d 68 e2 2b be 84 f7 1f be 5e 3d 68 be
       0.10626125 -0.16785586 -0.15621763 -0.2267966
000100 5b b5 b9 be 3c a2 a5 3e ec 93 78 be 50 41 b8 3c
       -0.36271176 0.32350338 -0.24275178 0.02249208
000110 20 a8 da 3c b6 74 b3 be 9a 59 b3 3e b0 a5 10 be
       0.026691496 -0.3504998 0.35029298 -0.14125705
000120 54 2c d0 bd a4 51 f8 bd e8 f4 41 3d 80 b1 b5 3e
       -0.10164705 -0.12124947 0.0473527 0.35486984
000130 9e 62 99 be a0 63 ca 3d 90 70 68 be 90 5e fe 3d
       -0.2995805 0.09882283 -0.22699189 0.1242038
000140 10 db 62 bd 34 e1 ba 3e a0 27 d3 3c 0a 5a 88 be
       -0.055384696 0.3649994 0.02577573 -0.26631194
000150 27 42 aa be 1c e2 ab 3e d0 6a 76 3e c8 a4 1a be
       -0.33253595 0.33570945 0.24064183 -0.15101922
000160 08 d7 9f 3e 0c 69 96 3e 06 71 23 be dc 14 c6 3e
       0.31218743 0.2937702 -0.15961084 0.3868779
000170 8e 09 12 be e3 6a c6 be 20 98 2a 3c 18 9c 64 3e
       -0.14261457 -0.38753423 0.010412246 0.2232517
000180 cc ee 89 bd 61 de d0 be 9a ce ad 3e 58 09 ae bd
       -0.06735 -0.40794662 0.33946687 -0.08497876
000190 a8 2d 3d 3e c0 07 9d 3e 18 67 03 3d c8 ed 0c 3e
       0.18474448 0.30669975 0.03208074 0.13762581
0001a0 a0 36 ba be c6 38 ac 3e 2f 29 cb be f0 d8 de 3d
       -0.363698 0.33637065 -0.39679858 0.10881221
0001b0 64 64 ad 3e f8 9a 73 3e c8 ef 23 bd 80 fc 98 3e
       0.33865654 0.23789585 -0.040023595 0.29880142
0001c0 38 90 6c be 28 b1 72 3d 70 4d 34 3e 4c f0 04 3e
       -0.2310189 0.05925098 0.17607665 0.12982291
0001d0 54 dd b7 3e f9 a6 72 be 20 4a 97 3e f1 47 b6 be
       0.35911047 -0.23696508 0.2954874 -0.35601762
0001e0 be 2c 87 be d2 6f b0 3e 99 23 47 be 4b 3a b3 be
       -0.26401323 0.34460312 -0.19447173 -0.35005412
0001f0 80 17 a5 3b 0c b5 6a 3e 68 2d 4a 3d 80 30 5b 3e
       0.005038202 0.22920626 0.04935971 0.2140522
000200 e2 1c 8a be 48 2f 17 be 1e f3 a2 be 8a f5 94 3e
       -0.2697516 -0.1476413 -0.3182611 0.2909358
000210 2c 12 8d 3e c4 da b5 3e bc 5a d0 3e 00 11 d4 3d
       0.27552927 0.35518467 0.40694225 0.10354805
000220 c0 c8 69 3d b3 9d b2 be 7c 68 30 3e 86 fe c4 be
       0.057076216 -0.3488594 0.17227358 -0.38475436
000230 a8 88 8b be 00 1b c9 ba 5c 17 b2 bd 2c 10 44 3e
       -0.27252698 -0.001534313 -0.08695862 0.19146794
000240 f0 a3 a7 3e b4 05 c6 3e 80 6e 3a 3b a0 b2 7e 3e
       0.32742262 0.38676226 0.002844721 0.24872828
000250 f0 70 98 3e 90 de 37 3d 01 85 b3 be f4 d2 61 3e
       0.29773664 0.044889987 -0.3506241 0.22053128
000260 f4 a0 c8 3e 50 83 c5 be 12 7a c1 be b6 fd aa be
       0.39185297 -0.38576746 -0.37788445 -0.3339669
000270 a0 28 8f bc 89 b7 6d be 4a b3 8f be 32 3c 81 3e
       -0.017475426 -0.23214544 -0.28066474 0.25241238
000280 d3 76 8e be 72 2e c5 3e 4c 34 b5 be ba 89 9f 3e
       -0.2782503 0.38511997 -0.35391462 0.31159765
000290 5a f7 50 be 14 ff ae 3e 3c 68 90 3d 2a 32 a0 be
       -0.20406857 0.34178984 0.07051131 -0.31288272
0002a0 30 2d cb 3d b0 44 a3 3d 34 f4 66 3e 94 1f 50 3e
       0.09920728 0.079720855 0.22554094 0.20324546
0002b0 b0 0f 24 3e 62 80 99 3e b8 34 4d 3d 01 2c c3 be
       0.1602161 0.2998076 0.050099105 -0.3811951
0002c0 8c c0 cf 3e e4 89 79 be 58 b4 cb 3d 3c 67 9a 3d
       0.4057659 -0.24369007 0.09946507 0.07539222
0002d0 50 d9 6e 3e 0a 9c 86 3e 48 36 c1 3d e8 67 89 3e
       0.23325086 0.26290923 0.094341815 0.26837087
0002e0 1e dc a1 3e b8 35 6b 3d a2 26 c9 3e e9 fd a9 be
       0.3161325 0.057424277 0.39287287 -0.3320153
0002f0 e4 a9 5b 3e 64 c4 9d 3e ea e2 a4 be 48 d7 b2 bd
       0.21451527 0.30813897 -0.32204372 -0.08732468
000300 d0 68 d5 3d 48 1b 1e 3e 08 ac 4b be 38 e4 39 bd
       0.10420382 0.15440094 -0.19889843 -0.045383662
000310 cc e2 7d 3e 84 eb fd bd c0 63 58 be 52 b5 9c 3e
       0.24793547 -0.12398437 -0.21131802 0.30607086
000320 f6 76 07 be 64 83 92 3e ba b2 b8 be 78 07 32 3e
       -0.13228974 0.28615868 -0.36073858 0.17385662
000330 7c c5 7f 3e a2 03 86 3e 00 56 c0 3e 96 16 3e be
       0.24977678 0.26174647 0.37565613 -0.18563303
000340 56 4f c9 3e 78 c6 e6 3d 50 42 24 3e 38 1b 03 3e
       0.3931834 0.11268324 0.16040921 0.12803352
000350 50 e3 be bc c4 97 b5 bd 88 60 76 3d dc fc 80 be
       -0.02330175 -0.088668376 0.060150653 -0.25192916
000360 18 50 6f bd 40 d9 97 be 60 75 1f 3c 1d c5 c4 be
       -0.058425993 -0.29657936 0.009732574 -0.38431635
000370 34 c1 ac be 68 bb ef 3d a2 9c 97 be f8 f2 19 3d
       -0.33741152 0.11705667 -0.2961169 0.03758523
000380 34 de 1b be c0 cb 94 3e 70 fd 9f bd 98 56 cd 3d
       -0.15221483 0.290617 -0.07812011 0.10026282
000390 00 71 ad 3a 60 72 95 bd 40 24 56 3d 3c ea 1f 3e
       0.0013232529 -0.07297206 0.052280664 0.15616697
0003a0 e0 51 8c bc 94 54 31 3e 43 ea 93 be f0 92 aa 3c
       -0.017128885 0.1731742 -0.28889665 0.020822018
0003b0 c0 c3 99 3b 0a b4 3a be 26 a6 bd 3e 5e 5a b9 be
       0.0046925247 -0.18232742 0.37040824 -0.36201757
0003c0 34 51 9e 3d f0 a2 a5 bc 10 12 08 3e c8 48 64 3e
       0.07730332 -0.020219296 0.1328814 0.22293389
0003d0 6c 07 95 3d d0 51 7f 3e 70 49 b6 bc 3a d3 b0 3e
       0.07276806 0.24933553 -0.022251815 0.34536153
0003e0 d0 91 f4 3d e4 65 6d 3e e5 c9 70 be 00 14 07 ba
       0.11941874 0.231834 -0.23514517 -0.00051528215
0003f0 21 19 aa be 05 be 97 be 0c 8d 45 3e 26 6f 7f be
       -0.33222297 -0.2963716 0.19292086 -0.24944744

bias f4 [128]
000000 7c 8b 4c 3e 9c 4a b3 3e 5d 5e 58 be 8e 09 20 be
       0.19975084 0.3501786 -0.21129747 -0.15628645
000010 10 78 fd 3d b8 f4 c0 be 0a 4c 12 be 40 2a ae be
       0.12376416 -0.37686706 -0.14286819 -0.3401661
000020 5c 44 0b be d8 c5 95 bd 26 ba 2d be 30 12 40 bd
       -0.13600296 -0.07313126 -0.16965541 -0.046892345
000030 26 e9 0a be 86 19 0b be 12 c6 a4 be 28 40 15 3e
       -0.13565502 -0.13583955 -0.32182366 0.14575255
000040 a0 5a a1 be ac 5c e5 bd d0 b0 63 3d 3c 1f b1 3e
       -0.31514454 -0.111993164 0.055588543 0.34594142
000050 74 76 da bd 60 6f 80 3d 60 aa 52 3c 00 73 86 be
       -0.106671244 0.06271243 0.012858003 -0.26259613
000060 b0 aa e4 3d 54 a6 08 3e 58 84 15 be 00 04 e6 3c
       0.111653686 0.13344699 -0.14601266 0.02807808
000070 e5 3f b5 be 9f 57 51 be c0 25 9d bd 91 bb a8 be
       -0.3540031 -0.20443581 -0.07673216 -0.32955602
000080 c0 01 86 be 08 6c df 3d e4 06 86 bd a0 ad 16 be
       -0.2617321 0.10909277 -0.06544283 -0.1471467
000090 59 4e 3a be 90 a8 4b 3d 64 e2 96 3d d4 c6 2c 3e
       -0.1819395 0.0497213 0.07367399 0.16872722
0000a0 86 46 cb 3e 32 f1 c8 3e 14 67 a4 be 2c b0 8d bd
       0.39702243 0.39246517 -0.32109892 -0.06918368
0000b0 98 99 4c be 40 1f 92 be a0 b9 8a bd 6a 20 61 be
       -0.19980466 -0.28539467 -0.067736864 -0.21985021
0000c0 35 6e b5 be 68 4e 49 3d a4 5b 3b 3e 20 ba b6 3c
       -0.35435644 0.04914704 0.18296677 0.022305548
0000d0 0e e0 85 be b2 86 16 be e0 69 85 3e 9a 1e a2 3e
       -0.26147503 -0.1469982 0.2605734 0.31663972
0000e0 d6 e8 13 be 80 fb a2 3c 04 4f 9e 3e b2 8c b1 3e
       -0.14444289 0.019895315 0.3091966 0.34677655
0000f0 10 64 14 be d6 c9 b5 3e 18 53 7c bd c4 9d 92 3e
       -0.14491296 0.3550555 -0.061602682 0.2863599
000100 00 a2 1d ba e0 70 fa bc 3a bb c4 3e 3e 05 06 be
       -0.00060132146 -0.030571401 0.38424093 -0.13087937
000110 ec 66 b1 3e 40 ab d5 3d 24 da b0 3e 58 43 9d 3e
       0.34648836 0.10433054 0.34541428 0.30715442
000120 d7 00 a0 be d4 08 6d 3e bc 59 15 3e 68 72 78 be
       -0.3125064 0.23147899 0.14585012 -0.24262393
000130 a4 e1 88 be 7d 1e 2f be 50 6b 64 3e 78 2d 7f 3e
       -0.2673465 -0.17101474 0.22306561 0.24919689
000140 98 a6 78 3e b6 17 bb be ba de 92 be ec f6 81 3e
       0.242823 -0.36541528 -0.28685552 0.253837
000150 bb 56 cf be 0e b5 89 3e be 3d 93 3e 16 d3 bf 3e
       -0.40495858 0.26895946 0.28758043 0.37465733
000160 7e cf b8 3e 00 38 ad be 80 1f cf 3e 2c 4c 30 3e
       0.36095804 -0.33831787 0.4045372 0.17216557
000170 00 62 75 bb d0 16 d5 3d f0 c2 9b 3c 80 32 0b 3d
       -0.0037442446 0.10404742 0.019013852 0.033983707
000180 50 28 ca be 23 28 68 be 10 d2 04 3e 2c 3d 6f 3e
       -0.3948388 -0.22671561 0.12970757 0.23363179
000190 80 8e c3 3c 6a 7f 55 be 5e 22 8a 3e 4d 78 cd be
       0.02387166 -0.20849386 0.26979345 -0.40130845
0001a0 e4 fc 92 3d a8 c4 4a be d0 cc fa bc 28 3c 3d 3e
       0.07177141 -0.19801581 -0.03061524 0.18479979
0001b0 cb ef 99 be 5a 22 a9 3e 14 55 b2 3d 38 cc ee bd
       -0.3006576 0.3303402 0.087076336 -0.116600454
0001c0 0a 6b 0d be fb 38 67 be 78 5b eb 3d 9b 4b 23 be
       -0.13810363 -0.2258033 0.11492056 -0.1594681
0001d0 1c 99 50 3e 80 a3 d4 3b fc 40 4a be 72 de a8 be
       0.20370907 0.0064892173 -0.19751352 -0.32982212
0001e0 58 b6 94 3e 67 e7 9f be 92 c0 ae 3e 14 1b 7a 3e
       0.29045367 -0.31231233 0.34131294 0.24424392
0001f0 9c dc 04 be ec b0 79 3e bc 32 b9 3e c8 9b 82 3e
       -0.12974781 0.24383897 0.3617152 0.25509477

weight f4 [2, 2]
000000 36 04 ca be f4 74 0b bf bd 91 9e be c8 f0 04 be
       -0.39456338 -0.5447533 -0.30970564 -0.12982476

bias f4 [2]
000000 64 13 8f be 3c eb 22 bf
       -0.2794448 -0.6364019

weight f4 [6, 130]
000000 87 37 a1 bd ce 34 35 3d c0 c9 bf 3c aa 6f ff bc
       -0.07871919 0.04423981 0.023411632 -0.031181175
000010 e6 76 0d 3d 9a bc 58 3d 78 f3 46 bd f6 58 7a 3d
       0.03453722 0.05291424 -0.048572034 0.061119996
000020 c0 20 19 bc b4 23 92 bd 87 d9 8e 3d 20 17 d2 3b
       -0.009346187 -0.07135716 0.06975084 0.006411448
000030 f2 b1 6d bd a0 c6 0a 3b 14 2a d8 3c c8 42 65 3c
       -0.05803103 0.0021175519 0.026387252 0.013992973
000040 0e 13 5d 3d aa 90 4e bd 4a 1b 41 3d f2 6e 48 3d
       0.05397325 -0.05043093 0.047145166 0.04893393
000050 80 b1 69 bc 03 08 71 bd a0 29 05 3b 38 43 1b bc
       -0.014263511 -0.05884553 0.0020319 -0.009476475
000060 80 37 3e bb df 94 85 3d 37 e8 ae bd e0 37 65 bc
       -0.002902478 0.065225355 -0.08540385 -0.013990372
000070 20 f9 d2 3c 8c 33 c9 3c c3 1a 8e 3d 10 25 ab bb
       0.025753558 0.024560712 0.06938698 -0.005222924
000080 e0 54 c7 bb 3e 16 98 bd 9a 92 3c 3d 3e 8b 4d 3d
       -0.006083116 -0.07426117 0.046038248 0.05018162
000090 1d 40 92 3d 12 4c 78 3d 15 5f 71 bd a7 23 a5 bd
       0.07141135 0.06061942 -0.058928568 -0.08063441
0000a0 e0 f0 6a bc 80 84 2b ba dc 28 bb 3c 88 37 12 3d
       -0.014339656 -0.00065428764 0.022846632 0.03569749
0000b0 d0 01 b9 3c 70 88 29 3c 28 e2 43 3c 70 76 3e bd
       0.022583872 0.010347471 0.011955775 -0.04649967
0000c0 1a 41 49 3d 57 eb 93 bd ee 1d 9e bd c8 b2 21 bc
       0.04913435 -0.07222622 -0.077205524 -0.009869285
0000d0 1c b8 c5 bc 76 71 57 3d 85 be 96 bd 96 d3 0a bd
       -0.024135642 0.05259844 -0.073605575 -0.03389319
0000e0 de 21 9e bd 3f f0 63 bd 51 c5 8a 3d ce 32 f9 bc
       -0.077213034 -0.05564904 0.06775916 -0.030419733
0000f0 80 c0 d6 3c 85 54 1c bd b9 ea 8e 3d 12 e5 5d 3d
       0.026214838 -0.03816654 0.069783635 0.054173537
000100 e3 92 81 3d 66 4a 52 bd 80 33 2b 3a 98 6d 72 3c
       0.063268445 -0.051340483 0.00065308064 0.014796637
000110 d7 30 20 bd 7d 25 99 bd f0 d6 89 bb cf 6c a8 3d
       -0.039109077 -0.074778534 -0.0042065307 0.082238786
000120 e5 53 94 3d 00 a2 15 bc e6 23 76 3d 4e 16 2e 3d
       0.07242564 -0.009132862 0.06009283 0.04250174
000130 9d 00 ac 3d ce e3 59 3d 30 90 a9 bd 60 55 62 3b
       0.083985545 0.053195767 -0.08279455 0.003453575
000140 ec 86 87 bd cf 0c 35 bd 6a d5 6c 3d fe b5 6f 3d
       -0.06617531 -0.04420167 0.057820715 0.05852317
000150 5a 7c 9c bd 9f 81 91 3d c0 18 32 3c 00 05 4b 3c
       -0.07640906 0.071048014 0.010870159 0.012391329
000160 a0 1c 88 3b 28 3e 45 3c 9e 70 6e 3d 6c 5d 65 bd
       0.004153803 0.012038745 0.05821287 -0.055997297
000170 46 bb 76 bd 60 15 13 3b 75 55 5f bd dd 45 0b bd
       -0.06023719 0.002244316 -0.054524858 -0.034002174
000180 3f 76 af 3d 2c 92 9e 3c 1d 40 89 3d ac 19 8b bd
       0.085674755 0.01935681 0.06701682 -0.06792006
000190 b2 35 61 3d 71 29 0c bd 90 cf 96 3c a0 47 3e 3c
       0.05498285 -0.03421921 0.01840952 0.011613756
0001a0 ca 64 3b 3d 62 fa 35 bd f0 a4 07 3d 50 41 a9 3b
       0.045750417 -0.044428237 0.03311628 0.0051652566
0001b0 61 04 95 3d 7d 49 a5 bd 0a 5d b1 bd df ff 89 3d
       0.07276226 -0.080706574 -0.08660324 0.06738257
0001c0 18 b7 0d 3c fa 8f 4f 3d 35 ff 19 bd c8 a8 8b 3c
       0.00864961 0.050674416 -0.0375969 0.017048255
0001d0 9d 48 b0 bd 24 ce 01 3d 50 a6 a1 3c ec d8 cf 3c
       -0.086076 0.03169073 0.019732624 0.025371991
0001e0 80 d7 d3 3c a0 ff 18 bb b6 e5 6f 3d b6 f4 55 bd
       0.025859594 -0.0023345724 0.05856868 -0.052235328
0001f0 93 23 42 bd a8 20 75 3c f8 e9 47 bd 2f ae 97 3d
       -0.047397207 0.014961399 -0.048807114 0.0740627
000200 e6 27 6e 3d 11 ca 85 3d d2 13 50 3d a0 5b 62 3c
       0.05814352 0.06532682 0.050800152 0.01381579
000210 18 fb 7c bc cd 8e a9 bd fe 28 45 3d b0 2d 0b 3c
       -0.015440725 -0.0827919 0.048134796 0.0084947795
000220 2a 0f 74 3d 8b 17 aa bd da 3b 6a bd 50 9a c5 bc
       0.059584774 -0.08305272 -0.057185985 -0.024121433
000230 67 7c 8e 3d f1 69 04 bd 1b b9 a9 3d e0 f7 54 3b
       0.069573216 -0.032327596 0.08287259 0.0032496378
000240 f0 51 78 3c 4c 0c d2 3c 90 fe 80 3b 72 1c 53 3d
       0.015156254 0.02564063 0.003936596 0.0515408
000250 f4 83 fa 3c 86 ce 24 3d 88 a5 7b bc 52 fa 2a 3d
       0.030580498 0.04023602 -0.01535929 0.04174263
000260 00 2f f4 bb a3 fd 0e bd 80 48 e9 bc e0 02 db 3b
       -0.007451892 -0.034909856 -0.028476954 0.0066836923
000270 39 a3 99 3d 79 02 af bd 08 47 75 bc b6 97 61 3d
       0.075018354 -0.085453935 -0.014970548 0.055076323
000280 ff a3 06 bd fa 46 78 bd 13 76 8f bd a0 c2 e7 3c
       -0.032871243 -0.060614564 -0.07004943 0.028291047
000290 d8 00 77 3c e2 a6 08 bd b7 0f a6 bd 80 4d 12 bd
       0.015075885 -0.033362277 -0.08108466 -0.03571844
0002a0 f6 c3 64 3d 4a 50 09 3d 30 75 b1 bc 00 e0 b4 bb
       0.055850945 0.033523835 -0.021662325 -0.005519867
0002b0 f0 d0 4f 3c e8 ed 8f bc 48 1a 6e bd 62 c6 00 3d
       0.012684092 -0.017569497 -0.058130533 0.031439193
0002c0 fc 6c a2 bc 5a e9 4e 3d ae 16 39 3d 56 ef 7e 3d
       -0.019827358 0.05051551 0.045187645 0.062239967
0002d0 02 9c 2b 3d 28 df 10 3c d2 f6 1e 3d 06 82 a3 bd
       0.041896828 0.008842267 0.038809605 -0.079837844
0002e0 9c 02 cc bc 00 bd 98 bc cc 76 bf 3c a2 d2 7a bd
       -0.024903588 -0.01864481 0.023372076 -0.06123603
0002f0 3a d0 40 3d ad 38 58 bd 4e 3d 6a 3d 5a 24 60 3d
       0.04707358 -0.052788425 0.05718737 0.054722168
000300 23 a0 a6 bd 6d 85 05 bd 41 d9 ac 3d 77 a4 3a bd
       -0.081360124 -0.032597948 0.084398754 -0.045567002
000310 3c ba 7d bd 97 e2 96 3d 40 f6 67 3b 10 9b 8e 3c
       -0.061945185 0.07367437 0.003539458 0.017407924
000320 ba ee 0d bd 8a 34 a4 bd 8a b5 53 3d 0a 66 b0 bd
       -0.034651496 -0.080178335 0.0516868 -0.086132124
000330 6c 7b ab 3c 46 3d 2b 3d c0 1c 29 bb 26 4a 4c 3d
       0.020932876 0.04180648 -0.002580449 0.0498754
000340 e6 9a 31 3d 5e fc 2d 3d 62 63 ab bd 10 fc 0f bd
       0.043360613 0.042477004 -0.08368565 -0.035152495
000350 54 31 f2 3c 92 8c 29 bd 0c 35 fe 3c 20 de ad bc
       0.029564537 -0.041393824 0.031031154 -0.021224082
000360 a4 12 5c bd 88 8f e7 3c 7b 19 ad bd 10 88 2e 3c
       -0.053728715 0.028266683 -0.08452126 0.010652557
000370 60 84 4c bb c0 29 3e 3c 90 a5 15 bd b0 26 8d bb
       -0.0031206831 0.011606634 -0.036534846 -0.0043075904
000380 74 5b b1 3c 2c 2e 9e bd 66 34 44 bd 88 f0 62 3c
       0.021650054 -0.0772365 -0.047901534 0.013851292
000390 8e 00 f6 bc a2 a5 4b 3d 2a 12 e2 bc d2 e5 2f 3d
       -0.030029561 0.049718507 -0.027596552 0.042943783
0003a0 c6 53 e6 bc 40 b1 d6 ba a5 5a a1 3d 6f 03 89 bd
       -0.028116118 -0.0016379729 0.07878617 -0.06690108
0003b0 b4 cc cd bc d0 55 44 bc 7c 9d 91 bc 62 1b 77 3d
       -0.025122024 -0.01198335 -0.01777529 0.06032885
0003c0 74 44 9a 3c dc bc a8 bc 83 e2 9b 3d 64 8f 96 bc
       0.01883147 -0.020597868 0.07611563 -0.01837892
0003d0 38 06 33 3c af ce a2 3d aa 24 11 3d 32 f5 92 bd
       0.010926776 0.07949578 0.035435356 -0.071756735
0003e0 50 2e d6 bc 90 97 c0 bb bb a9 93 bd a1 f2 08 bd
       -0.02614513 -0.0058774427 -0.07210108 -0.033434514
0003f0 d0 1c 2f bc 87 0c 81 3d 60 b2 a3 bb 45 c8 49 bd
       -0.010688022 0.063012175 -0.004995629 -0.049263258

bias f4 [6]
000000 0f 96 14 bd b9 fc 72 bd f8 7d fe 3c 4e 2c 6a bd
       -0.03627592 -0.059323046 0.031065926 -0.05717116
000010 98 77 2e bc 72 17 72 3d
       -0.010648631 0.05910439

weight f4 [1, 130]
000000 0a 57 a0 bd 1e 5a 24 bd 58 db 6f 3c c6 0d 70 3d
       -0.078291014 -0.040125005 0.014639698 0.058606885
000010 1e 13 5e 3d 7e 82 46 bd f7 af a1 3d 38 6c ca bc
       0.05421745 -0.04846429 0.07894891 -0.024709806
000020 84 d9 52 bd 7a 36 13 3d 77 13 70 bd 97 03 58 bd
       -0.05147697 0.035940625 -0.058612313 -0.0527378
000030 52 a7 7a 3d b6 14 0e bd f4 49 c2 bc c0 e5 36 bd
       0.061194725 -0.03468772 -0.023716904 -0.0446527
000040 4f 8e 9d bd 9e a9 a5 bd b6 48 0d 3d d8 bd 59 bc
       -0.07693159 -0.080889925 0.03449317 -0.013289891
000050 80 bf 43 bc 21 94 74 bd 04 1d d2 3c be d1 56 3d
       -0.011947513 -0.05971158 0.025648601 0.05244612
000060 2b 72 8e 3d ae f7 21 3d 7a ea 44 3d 7a de 40 3d
       0.069553696 0.039542846 0.048075177 0.04708717
000070 77 db 83 3d 04 26 58 bd 84 19 d2 bc b9 28 70 bd
       0.06438344 -0.05277063 -0.025646932 -0.058632586
000080 08 c1 0d 3d 24 28 86 bc d0 60 da 3c 7f 93 86 bd
       0.034607917 -0.016376562 0.026657492 -0.065711014
000090 e4 70 87 bd 68 76 8e bd 20 4d 55 bb 98 15 0c 3d
       -0.06613329 -0.06956178 -0.003254719 0.03420028
0000a0 48 f2 18 bc ce 3d 4e 3d 7f 5c b1 3d bc d4 a9 bd
       -0.009335108 0.05035191 0.0866022 -0.08292529
0000b0 44 4d cd 3c 40 5e 01 3c fc be f2 3c e2 05 66 bd
       0.025061257 0.007896006 0.029632084 -0.056157954
0000c0 e8 74 1b 3c 18 ca 59 bd c0 a4 41 bc aa e5 54 3d
       0.009488322 -0.053171247 -0.011819065 0.051976837
0000d0 e4 65 de bc 7a 78 5f 3d 60 3b 40 3c 9c 58 75 bd
       -0.027148195 0.054558255 0.011732906 -0.059898958
0000e0 e8 2f 35 bc 86 34 56 3d 85 6a 83 3d 9c 9f da 3c
       -0.011058785 0.052296184 0.06416801 0.026687436
0000f0 00 bf 21 3a 13 79 10 bd b0 2c 16 bd 90 60 41 bd
       0.0006170124 -0.035271715 -0.03666371 -0.04721123
000100 b0 7c 10 3c e1 77 86 bd c2 12 99 bd 5b bb 9a 3d
       0.00881879 -0.06565834 -0.07474281 0.075552665
000110 5c fb bd bc cd 23 5c bd d0 44 97 3c 16 27 7e 3d
       -0.023191147 -0.05374508 0.01846543 0.062048994
000120 39 c4 83 3d 68 d6 10 bc 80 d8 b5 ba 38 54 8a 3c
       0.06433911 -0.008840181 -0.0013873726 0.016885862
000130 f0 3c fb 3c c0 a8 d7 3a 31 cf 29 bd c0 f2 f2 3a
       0.030668706 0.001645349 -0.04145736 0.001853548
000140 c2 b0 82 bd af 19 9b 3d 54 48 a8 3c d5 6e 44 bd
       -0.0638137 0.07573258 0.020542301 -0.04795726
000150 6e 86 20 bd d2 27 7d bd 20 fb 73 3c 93 d6 92 3d
       -0.039190702 -0.061805554 0.014891416 0.07169833
000160 18 e8 b6 3c 2e 92 1c 3d f8 17 80 bc 30 1d 80 bc
       0.022327468 0.038225345 -0.01563643 -0.015638918
000170 0f 0f 3a bd f8 5a 17 bc b6 de 1a 3d fb 82 12 bd
       -0.045424517 -0.009237997 0.03781005 -0.035769444
000180 e0 01 1f bc 7d 83 af bd 4f e6 98 bd a0 88 9c bb
       -0.009705037 -0.08570001 -0.07465803 -0.004777029
000190 91 ba 18 bd 60 9f c1 3c 13 0d ac 3d 86 3c 0f 3d
       -0.0372873 0.023635566 0.08400931 0.03496983
0001a0 db 3a 99 bd 30 30 32 bc 23 b3 94 3d 9e 3a 14 3d
       -0.07481929 -0.010875747 0.0726073 0.036188714
0001b0 46 53 06 3d c6 70 6e 3d f5 ef 88 3d 58 c5 6e bc
       0.03279426 0.058213018 0.06686393 -0.014573418
0001c0 e7 4c 8a 3d 14 38 d2 bc fa 00 7f 3d 24 79 c3 bc
       0.06752949 -0.025661506 0.06225679 -0.023861475
0001d0 c4 ea a6 3c ca 18 16 3d 22 48 0a bd 4f 11 83 3d
       0.020375617 0.036644734 -0.033760197 0.06399786
0001e0 d0 3d 69 3c 22 75 4e 3d 9a 6c 58 3d d8 33 bc 3c
       0.014235929 0.050404675 0.052837946 0.02297394
0001f0 7a ec 98 bd 48 82 12 3d 05 e3 48 bd a0 2a 81 bd
       -0.07466979 0.035768777 -0.049044628 -0.06306958
000200 26 e9 27 bd 2b 09 00 bd
       -0.040993832 -0.031258743
