model/model_test.pth (torch, 18082 bytes, 10 tensors)

weight f4 [200, 1, 1, 1]
-0.7537178 0.7650354 0.30779874 0.21633506 0.22057855 -0.87824774 -0.54143584 -0.9312978
0.90271544 0.34969532 -0.21259892 0.04376805 0.47345924 0.81202805 -0.19984722 0.6396575
-0.4193709 0.7244606 -0.02515471 0.47264123 0.91936934 0.9799956 0.5586549 0.81962407
-0.14354432 -0.2888981 0.84345746 0.6899748 -0.16027892 0.8155818 -0.27930176 0.22717941
0.557611 0.74871063 0.59647 -0.28980553 -0.92879105 -0.63899136 0.5421035 0.15566027
0.9943677 0.21388674 0.5592518 -0.5978403 0.027202368 0.05259502 -0.90370405 -0.54650927
0.5805801 -0.70807576 -0.0071456432 0.06816268 -0.3209026 -0.97353005 0.37875867 -0.76414084
0.285172 -0.087896824 0.13582718 -0.042731404 0.15674281 -0.82254136 -0.15922844 -0.26428592
-0.3801899 -0.45102763 -0.03712833 0.3393209 -0.40871203 -0.16066766 0.44229102 -0.61912477
-0.296219 0.4690379 0.4094255 0.055564523 0.8190619 -0.7956444 -0.840394 -0.9576293
0.5762832 -0.06176448 0.05143392 0.4718207 0.7763903 0.015489697 0.041107178 0.7962853
0.49932992 -0.5680361 0.06723392 -0.48917592 0.18330383 -0.17912138 -0.27922618 -0.7499256
-0.5640807 -0.30677283 -0.680128 -0.72651446 0.22284913 0.804162 0.7265525 -0.6311599
-0.62424946 0.03564942 -0.023474574 0.3899895 -0.3992232 0.03900695 0.14152288 0.5554017
0.78995144 -0.1293906 0.010527253 -0.76562047 0.8796309 -0.1108526 0.47782385 0.2630124
-0.37726665 -0.41106474 0.17152596 0.9698676 0.54930496 -0.6308801 0.32047164 0.25398588
-0.8490888 -0.15119123 -0.65849566 0.007986069 -0.6323737 0.48143315 0.05287528 -0.24470651
0.41334927 0.7512113 -0.531605 0.5120959 0.5351615 0.116726756 0.5381367 0.6717241
-0.85004854 -0.9327196 0.4080888 -0.47268307 0.86170506 -0.27961028 -0.62295246 0.29459178
-0.93025196 -0.29119003 -0.38434136 0.2433443 -0.5552802 0.37084424 -0.9309648 0.1527232
0.3365289 -0.94505656 0.95532954 0.89893734 0.16635418 0.15166414 0.3522625 -0.64139986
-0.065250635 -0.15034664 0.22685897 0.61908436 -0.0026302338 -0.20165694 -0.58156455 -0.33408546
-0.36823392 0.18314016 -0.40537262 0.93279576 -0.79604006 0.2038877 0.7785511 -0.41477048
0.66995454 0.37262142 -0.16658556 -0.49692416 -0.5594065 0.1599834 -0.42479062 -0.24638641
0.9678587 -0.1112479 -0.6936139 0.93404377 -0.050235868 -0.14631629 0.6236403 -0.35839033
00000000: a6f3 40bf 5cd9 433f cc97 9d3e f086 5d3e
00000010: 58df 613e d8d4 60bf 8a9b 0abf 8869 6ebf
00000020: 5c18 673f 440b b33e 88b3 59be 2046 333d
00000030: 4069 f23e 12e1 4f3f c0a4 4cbe 98c0 233f
00000040: c8b7 d6be 4076 393f 4011 cebc 08fe f13e
00000050: ca5b 6b3f fee0 7a3f 0204 0f3f e2d2 513f
00000060: 48fd 12be 74ea 93be d4ec 573f 30a2 303f
00000070: 2820 24be f8c9 503f a400 8fbe b8a1 683e
00000080: 98bf 0e3f 80ab 3f3f 42b2 183f 6461 94be
00000090: 40c5 6dbf f094 23bf 4cc7 0a3f 6865 1f3e
000000a0: e28e 7e3f 2005 5b3e 202b 0f3f 100c 19bf
000000b0: 80d7 de3c e06d 573d 2659 67bf 08e8 0bbf
000000c0: e6a0 143f 7444 35bf 0026 eabb e098 8b3d
000000d0: 584d a4be 4439 79bf a8ec c13e bc9e 43bf
000000e0: 1002 923e 4003 b4bd 4816 0b3e 2007 2fbd
000000f0: 3081 203e 1292 52bf c80c 23be 7c50 87be
00000100: 40a8 c2be 18ed e6be e013 18bd 78bb ad3e
00000110: b442 d1be 1086 24be f873 e23e f67e 1ebf
00000120: 04aa 97be bc25 f03e 38a0 d13e a097 633d
00000130: 0aae 513f 5aaf 4bbf 1024 57bf 3227 75bf
00000140: 4c87 133f c0fc 7cbd 60ac 523d 7c92 f13e
00000150: 84c1 463f 80c8 7d3c 0060 283d 5ad9 4b3f
00000160: 2ca8 ff3e d06a 11bf f0b1 893d 4475 fabe
00000170: 00b4 3b3e 986b 37be bcf6 8ebe 20fb 3fbf
00000180: 9867 10bf 5411 9dbe de1c 2ebf dafc 39bf
00000190: 9032 643e 90dd 4d3f 58ff 393f b293 21bf
000001a0: d0ce 1fbf 2005 123d c04d c0bc b4ac c73e
000001b0: fc66 ccbe c0c5 1f3d 60eb 103e ce2e 0e3f
000001c0: 423a 4a3f f87e 04be 807a 2c3c b4ff 43bf
000001d0: 7e2f 613f b006 e3bd 54a5 f43e 90a9 863e
000001e0: 1829 c1be 1477 d2be 80a4 2f3e 3e49 783f
000001f0: 409f 0c3f 5c81 21bf dc14 a43e 700a 823e
00000200: e25d 59bf e0d1 1abe 2c93 28bf 00d8 023c
00000210: 3ee3 21bf 687e f63e c093 583d 5894 7abe
00000220: 84a2 d33e 624f 403f 4417 08bf b818 033f
00000230: 5800 093f 700e ef3d 54c3 093f 1cf6 2b3f
00000240: c89c 59bf b6c6 6ebf 04f1 d03e 8403 f2be
00000250: b498 5c3f 1429 8fbe d079 1fbf bcd4 963e
00000260: fe24 6ebf dc16 95be 64c8 c4be 402f 793e
00000270: d826 0ebf 4cdf bd3e b653 6ebf 7863 1c3e
00000280: 844d ac3e 3aef 71bf 7a90 743f c220 663f
00000290: c058 2a3e d84d 1b3e c05b b43e c832 24bf
000002a0: 20a2 85bd 78f4 19be b84d 683e 507c 1e3f
000002b0: 0060 2cbb 287f 4ebe 6ae1 14bf 400d abbe
000002c0: 2889 bcbe 1889 3b3e 008d cfbe b4cb 6e3f
000002d0: 48c9 4bbf f0c7 503e 204f 473f cc5c d4be
000002e0: 2482 2b3f 3cc8 be3e 6895 2abe d86c febe
000002f0: 4435 0fbf b0d2 233e 287e d9be b84c 7cbe
00000300: 96c5 773f f0d5 e3bd ae90 31bf 7e1d 6f3f
00000310: 20c4 4dbd f0d3 15be e4a6 1f3f f07e b7be

bias f4 [200]
0.5121025 0.20352745 0.95476043 0.071068525 0.75243676 -0.9391583 0.8529084 -0.30708432
-0.84237516 -0.38537884 -0.12206328 0.4350264 -0.9375049 -0.23715663 -0.40020204 0.3010738
0.6895788 0.99199104 0.33199096 0.100700855 0.7888408 -0.56953967 -0.28157675 0.33080816
0.3197521 -0.8293686 0.70918417 0.09102726 0.40469158 0.3054098 -0.7936903 -0.6701603
-0.4294548 -0.59654045 0.098995805 -0.5528157 -0.33465195 -0.29779446 0.21835291 0.7076901
-0.3721981 0.71926844 0.9889941 0.13007295 -0.32894695 0.4022745 -0.60047066 0.66662693
0.44424927 -0.5099634 0.041196942 0.8697611 0.81660175 0.92891765 -0.84531593 0.90944064
-0.83532584 -0.61764956 -0.026061893 0.03873813 0.17429316 -0.23684633 0.94804585 0.13376904
-0.6558472 -0.835289 0.09831655 0.23127735 0.313653 0.6154258 -0.5113728 0.21653402
-0.68113303 0.2539469 0.13612092 0.04861462 -0.39130235 -0.5539603 0.55580544 -0.738109
0.4330175 0.34032857 0.63009906 0.67022717 0.41954458 0.9254894 0.61199284 -0.42340362
0.36774206 0.7521672 -0.4910277 0.53131163 -0.043469787 0.69978213 0.40555775 0.7996588
-0.089571595 0.14113069 0.29554474 0.77799046 -0.17348492 -0.23979676 -0.81038904 0.3662647
0.18813312 0.22958791 0.1604371 -0.20724714 0.031616688 -0.9253721 0.17366457 -0.5634452
0.6646379 -0.8677721 0.15893531 -0.2844082 0.036306262 0.020276546 -0.167117 -0.484429
-0.30839682 0.61414814 0.14496088 0.66191185 -0.6507839 -0.7588005 -0.7646605 0.5689657
0.32741725 -0.14094841 -0.1559658 0.69339454 0.590315 0.8237058 -0.52359235 -0.86015904
0.89943635 0.3250252 0.83868444 0.06232834 -0.9713812 0.6270921 -0.25671637 -0.59043825
-0.49465728 0.42529202 0.94369185 0.42179477 -0.8053818 -0.43352056 -0.22843385 0.104946256
-0.3977226 0.702484 -0.124828935 -0.6025659 -0.85554874 0.324916 -0.23354101 0.9287051
-0.7323487 0.2682811 0.6763798 0.11910546 0.8455261 0.8055202 -0.3232304 0.8684157
-0.7499213 0.8336483 0.19495976 -0.71715724 0.60310566 0.85280526 0.14715636 -0.3593217
-0.40019667 -0.2975105 0.5276958 -0.7952006 0.26366675 0.92621267 -0.89869356 0.52418137
0.57872486 -0.3541367 0.43365312 0.29452002 0.7816719 0.71484923 0.5262152 0.758458
0.6857077 -0.36523545 -0.9763422 0.16724062 -0.93549585 0.42828095 -0.9857739 -0.37660372
00000000: 2619 033f 8069 503e 2e6b 743f 608c 913d
00000010: b29f 403f ae6c 70bf 3458 5a3f 283a 9dbe
00000020: e6a5 57bf 6050 c5be 50fc f9bd c8bb de3e
00000030: 5200 70bf 30d9 72be 48e7 ccbe 5826 9a3e
00000040: 3c88 303f 20f3 7d3f b8fa a93e 403c ce3d
00000050: 78f1 493f 5acd 11bf d42a 90be b05f a93e
00000060: 8cb6 a33e 8051 54bf 188d 353f 806c ba3d
00000070: bc33 cf3e ac5e 9c3e 4a2f 4bbf a08f 2bbf
00000080: 80e1 dbbe e0b6 18bf 50be ca3d 5485 0dbf
00000090: 8057 abbe 8478 98be e897 5f3e 2e2b 353f
000000a0: c090 bebe fa21 383f b82e 7d3f d831 053e
000000b0: bc6b a8be ecf6 cd3e 72b8 19bf 10a8 2a3f
000000c0: a474 e33e f68c 02bf 20be 283d aaa8 5e3f
000000d0: d00c 513f 8ccd 6d3f a066 58bf 1ad1 683f
000000e0: ead7 55bf 481e 1ebf c07f d5bc e0ab 1e3d
000000f0: e879 323e d887 72be 22b3 723f c0fa 083e
00000100: 9ae5 27bf 80d5 55bf 305a c93d f8d3 6c3e
00000110: 2097 a03e 8c8c 1d3f 54e9 02bf 18bb 5d3e
00000120: bc5e 2ebf 5405 823e 4863 0b3e 2020 473d
00000130: c858 c8be 58d0 0dbf 4449 0e3f b6f4 3cbf
00000140: 78b4 dd3e 8c3f ae3e 2c4e 213f 0294 2b3f
00000150: 8cce d63e e0ec 6c3f 90ab 1c3f 5cc8 d8be
00000160: b048 bc3e 088e 403f fc67 fbbe 0a04 083f
00000170: 600d 32bd ec24 333f 44a5 cf3e 70b6 4c3f
00000180: 5071 b7bd 9084 103e a451 973e 622a 473f
00000190: 08a6 31be 488d 75be a875 4fbf 0c87 bb3e
000001a0: f8a5 403e 1819 6b3e a049 243e 9838 54be
000001b0: 8080 013d 30e5 6cbf 20d5 313e f23d 10bf
000001c0: b625 2a3f 5026 5ebf f0bf 223e f49d 91be
000001d0: e0b5 143d 001b a63c b820 2bbe 1407 f8be
000001e0: 30e6 9dbe d038 1d3f a070 143e 0e73 293f
000001f0: c699 26bf c040 42bf cac0 43bf bca7 113f
00000200: 3ca3 a73e c854 10be 80b5 1fbe 4e82 313f
00000210: e21e 173f 62de 523f 260a 06bf 6233 5cbf
00000220: 7641 663f b469 a63e 06b4 563f 004c 7f3d
00000230: 70ac 78bf 1c89 203f 5470 83be f626 17bf
00000240: b843 fdbe e0bf d93e ca95 713f 7cf5 d73e
00000250: 802d 4ebf 68f6 ddbe 90ea 69be 10ee d63d
00000260: 4ca2 cbbe fed5 333f 50a6 ffbd c241 1abf
00000270: 3e05 5bbf 645b a63e 6025 6fbe 9ebf 6d3f
00000280: 347b 3bbf 245c 893e 3a27 2d3f 90ed f33d
00000290: 6674 583f 9236 4e3f 747e a5be 7e50 5e3f
000002a0: d8fa 3fbf fa69 553f 88a3 473e 9e97 37bf
000002b0: 2265 1a3f 7251 5a3f 28b0 163e 04f9 b7be
000002c0: 94e6 ccbe 4c53 98be 1217 073f 4492 4bbf
000002d0: 54ff 863e 461c 6d3f c810 66bf c030 063f
000002e0: 5027 143f 6851 b5be c807 de3e 54cb 963e
000002f0: a61b 483f 5c00 373f 0ab6 063f 4e2a 423f
00000300: 8a8a 2f3f 2400 bbbe 90f1 79bf 2041 2b3e
00000310: a87c 6fbf a447 db3e ae5b 7cbf 34d2 c0be

weight f4 [1, 200, 2, 1]
-0.0023345053 -0.04320103 -0.045304395 -0.042305805 -0.04416727 0.008157939 -0.028508723 -0.047503006
0.02298281 -0.028176082 -0.008529097 -0.0019727536 0.026098002 0.038732734 0.008590281 -0.048467923
-0.003185045 -0.027191365 -0.028276354 0.016825031 0.030840222 0.022086147 0.012336619 0.030820344
0.04109673 -0.021567304 0.00082780793 -0.017323412 -0.0013899691 0.04449283 -0.009386629 -0.044132896
0.03957097 -0.04259791 0.00053923205 0.043787125 -0.0031300858 -0.009395726 -0.04942323 -0.03711165
-0.0020904653 0.030529905 0.021104071 -0.021117736 0.04767787 0.034207296 0.020268533 0.004986733
0.0047432706 -0.011425398 0.047168184 -0.00790735 0.017388184 0.020163674 -0.0120565295 0.010554619
-0.013302337 -0.0045985356 -0.008404352 -0.033980735 -0.008767802 -0.046662666 -0.014127295 0.046630148
0.0114227645 0.040241007 0.0031351745 -0.006222926 0.039620455 0.035475906 -0.02855171 0.04518194
0.043898974 0.0412581 -0.049816288 0.010138582 -0.0076783 -0.041959047 0.037201542 0.027947303
-0.0030234344 0.0380355 0.03599673 -0.040982436 0.049455505 0.030521218 0.038331162 -0.032972783
-0.002187498 -0.027379513 -0.023894394 0.046960924 -0.008752357 0.010816265 -0.01327445 -0.049362827
0.048491713 0.022467297 -0.02092418 0.013328094 -0.02850824 -0.027541667 0.032448594 -0.0035085455
-0.03536587 0.0053116977 -0.001431562 0.04021347 -0.029206729 0.036784086 0.0061854534 0.017124202
0.04772002 -0.045233864 -0.01658798 -0.040043235 -0.024375802 0.025443133 0.0009866282 0.01043421
-0.018515475 0.020665895 0.022246066 -0.04354301 0.011210434 0.032500666 0.014129732 0.044520628
-0.033425428 0.011603184 -0.026180023 0.02657536 -0.021943761 -0.012712229 -0.008051954 -0.0043068826
0.041408572 0.005786471 -0.010453038 -0.024300402 -0.0021558814 -0.017885465 -0.035476435 0.03941687
0.018062476 -0.00974825 0.008218102 0.044583578 -0.04011144 -0.03428482 -0.0014896691 -0.018063746
-0.03555181 0.041494872 -0.032433793 -0.0042243116 0.040131126 0.02595793 -0.033637613 -0.0034429133
-0.030808229 0.044127826 -0.036380656 -0.024444878 -0.0071933754 0.033905033 0.02733815 0.031160112
-0.022118991 -0.0109967105 -0.032638736 0.0062760897 0.04353552 0.034452442 0.047016304 -0.017208677
0.01733255 -0.020879531 0.044021334 -0.03627988 -0.024806721 0.017770711 0.033669833 0.007148195
-0.03611195 -0.008484185 -0.012691952 -0.04844554 -0.03216543 0.02569339 -0.018544983 0.024603333
0.0047807023 -0.018775517 0.032565776 -0.0094875395 -0.03970017 -0.04136165 -0.04521644 0.04658928
0.03502873 0.037242692 0.036654096 0.045728955 -0.049157705 -0.027286286 -0.0017294064 0.038420137
0.010893345 0.015743833 -0.031157363 0.044348378 0.023905437 0.036515843 -0.018324114 -0.028682787
-0.020468831 0.04316229 0.045114096 0.026200142 -0.008993737 0.0051830113 0.005718209 -0.021802712
0.008906573 -0.03678128 0.011112563 -0.042591702 0.032721315 0.023342598 0.04964078 0.0018444546
-0.043265592 0.028273884 0.035439212 0.016289514 0.02825566 -0.024774337 0.008657478 -0.023930406
0.043887977 -0.025227292 0.026362602 0.013715547 -0.010685485 -0.002239395 -0.028361762 -0.011944778
0.008532859 0.04300457 0.029504757 0.036207926 -0.013440318 -0.04922632 -0.040148616 0.010418065
00000000: 80fe 18bb 90f3 30bd 1a91 39bd da48 2dbd
00000010: bde8 34bd e0a8 053c 208b e9bc 8392 42bd
00000020: 7246 bc3c 87d1 e6bc a0bd 0bbc 5049 01bb
00000030: 7acb d53c 37a6 1e3d 40be 0c3c 4d86 46bd
00000040: 30bc 50bb 6dc0 debc d0a3 e7bc a6d4 893c
00000050: a2a4 fc3c 02ee b43c 881f 4a3c f27a fc3c
00000060: 0b55 283d eaad b0bc 4001 593a d4e9 8dbc
00000070: a02f b6ba 1d3e 363d 60ca 19bc b2c4 34bd
00000080: 2b15 223d 257b 2ebd 405b 0d3a 215a 333d
00000090: 2022 4dbb 88f0 19bc 0370 4abd 6302 18bd
000000a0: 3000 09bb da19 fa3c 72e2 ac3c 1aff acbc
000000b0: df49 433d f31c 0c3d 320a a63c c067 a33b
000000c0: 706d 9b3b 9831 3bbc 6d33 413d d48d 01bc
000000d0: aa71 8e3c 4a2e a53c c088 45bc 48ed 2c3c
000000e0: 0cf2 59bc 50af 96bb 68b2 09bc 622f 0bbd
000000f0: d4a6 0fbc 5a21 3fbd 2c76 67bc 41ff 3e3d
00000100: 8c26 3b3c c1d3 243d 8077 4d3b b0e9 cbbb
00000110: 0f49 223d 2f4f 113d 47e5 e9bc b310 393d
00000120: 69cf 333d 41fe 283d 2a0c 4cbd 4c1c 263c
00000130: 409a fbbb 40dd 2bbd a560 183d bef1 e43c
00000140: d024 46bb 1dcb 1b3d 4f71 133d 33dd 27bd
00000150: db91 4a3d a207 fa3c 2301 1d3d 780e 07bd
00000160: 205c 0fbb 004b e0bc 2dbe c3bc 195a 403d
00000170: 0c66 0fbc b436 313c 147d 59bc ad30 4abd
00000180: 3f9f 463d 560d b83c 3069 abbc 145e 5a3c
00000190: 1d8a e9bc 109f e1bc d1e8 043d a0ef 65bb
000001a0: cddb 10bd c00d ae3b 40a3 bbba e1b6 243d
000001b0: f342 efbc e9aa 163d 58af ca3b 0e48 8c3c
000001c0: 1176 433d 2547 39bd 84e3 87bc 6004 24bd
000001d0: c3af c7bc 1e6e d03c c051 813a 40f4 2a3c
000001e0: c4ad 97bc 864b a93c 623d b63c 285a 32bd
000001f0: f8ab 373c 6b1f 053d 6480 673c 435b 363d
00000200: 1ae9 08bd 481b 3e3c 7d77 d6bc 92b4 d93c
00000210: 67c3 b3bc f446 50bc 58ec 03bc c020 8dbb
00000220: 099c 293d 709c bd3b 3843 2bbc a311 c7bc
00000230: b049 0dbb 8a84 92bc bd4f 11bd 9573 213d
00000240: c2f7 933c 20b7 1fbc 38a5 063c 459d 363d
00000250: e54b 24bd 3d6e 0cbd 0041 c3ba 6cfa 93bc
00000260: c69e 11bd 87f6 293d 4cd9 04bd 186c 8abb
00000270: 8960 243d baa5 d43c 98c7 09bd 80a2 61bb
00000280: 8a61 fcbc 61bf 343d e203 15bd a040 c8bc
00000290: 68b6 ebbb 01e0 0a3d 42f4 df3c 7e43 ff3c
000002a0: e332 b5bc 8c2b 34bc 32b0 05bd a8a7 cd3b
000002b0: 4d52 323d 011e 0d3d 2b94 403d 36f9 8cbc
000002c0: fefc 8d3c 8d0b abbc b74f 343d 369a 14bd
000002d0: 7737 cbbc e293 913c 61e9 093d 683b ea3b
000002e0: 20ea 13bd 4001 0bbc e8f1 4fbc d56e 46bd
000002f0: e6bf 03bd f27a d23c a6eb 97bc ee8c c93c
00000300: 70a7 9c3b 1dcf 99bc b163 053d a071 1bbc
00000310: a59c 22bd d56a 29bd e034 39bd 67d4 3e3d
00000320: 497a 0f3d cb8b 183d 9b22 163d 494e 3b3d
00000330: 9759 49bd 7d87 dfbc 40ad e2ba 6f5e 1d3d
00000340: 007a 323c 36f9 803c ba3d ffbc a5a6 353d
00000350: 56d5 c33c a391 153d 741c 96bc 2af8 eabc
00000360: 40ae a7bc f1ca 303d 8fc9 383d aea1 d63c
00000370: 785a 13bc 40d6 a93b d05f bb3b 9a9b b2bc
00000380: e0ec 113c f8a7 16bd 7811 363c a374 2ebd
00000390: c906 063d fa38 bf3c 2154 4b3d a0c1 f13a
000003a0: 4337 31bd a29e e73c b528 113d 9671 853c
000003b0: 6a78 e73c 8df3 cabc 18d8 0d3c b309 c4bc
000003c0: e1c3 333d 77a9 cebc 62f6 d73c 2cb7 603c
000003d0: 2c12 2fbc d0c2 12bb ed56 e8bc 08b4 43bc
000003e0: 68cd 0b3c 8f25 303d f6b3 f13c c34e 143d
000003f0: c834 5cbc 8aa1 49bd e072 24bd 88b0 2a3c

weight f4 [128, 6]
-0.3329881 0.33511865 -0.05952391 -0.39549083 0.11230558 0.21852183 -0.10687631 -0.115656465
0.397954 -0.08778027 -0.3696586 0.3522613 -0.18591681 0.05253455 0.3336602 0.29356807
0.30296284 0.15026414 0.093011975 0.26450104 0.02967596 0.32944196 0.14397234 -0.29239613
0.25116807 -0.24647596 0.10817635 -0.16800901 -0.28387854 0.3532266 0.068948776 0.22512037
0.18077165 -0.15703937 0.30381024 0.23160309 0.12291509 0.23068619 -0.10603574 0.36183292
-0.2575332 -0.24148595 0.07901153 0.034311384 0.2935105 -0.119411945 0.11766094 -0.37167296
-0.28185064 0.3835839 0.03469354 0.025938243 -0.24955386 -0.045539886 -0.25081038 -0.23828433
0.40723133 -0.40341994 0.06544176 0.40394044 -0.021616518 0.31025964 0.39382803 -0.10541943
0.080923766 -0.12092033 -0.11621964 -0.38770348 0.15033388 0.37833583 -0.15851223 -0.32890865
-0.1848873 -0.09519881 0.058242768 -0.021692187 0.28297764 -0.26457602 -0.33769032 -0.40052333
-0.018524468 0.10055977 -0.24922347 0.40069872 -0.31782177 -0.08888754 -0.1272654 0.201891
0.28822166 -0.31165937 -0.055834234 0.11131096 0.13664442 0.07947099 -0.051972926 -0.27527744
0.3349877 -0.08225441 -0.2047341 -0.06999171 0.27471477 0.37153953 0.13989168 0.15931433
0.26254725 0.10981816 0.19194704 0.22074968 0.18303508 0.05414766 0.14586556 0.051979035
-0.1787685 0.2840957 0.036078244 -0.11998248 0.29607826 -0.113971144 -0.3169779 0.26678264
0.10467601 0.0824959 -0.27092704 0.2122609 0.3972395 0.045567334 0.13327736 -0.1552625
0.082143545 0.02434051 -0.1357902 -0.35547614 -0.11193305 0.06294915 0.19123101 -0.36295676
0.32208025 0.027968913 -0.08803138 -0.047459573 0.08548054 0.3559081 -0.37030134 0.07284829
0.1239261 0.38139373 -0.13359657 -0.20375915 0.377158 0.22882575 0.04102224 -0.03838405
-0.18054208 0.31280494 0.39812398 -0.21997952 -0.12277016 -0.22951499 0.03844416 0.059093982
-0.40297037 0.024144918 -0.31251878 0.28556663 -0.2926229 0.32499427 0.27654815 0.060658574
0.3478979 0.27874827 0.0136831105 0.21611571 0.19564444 0.13089651 -0.05538231 0.01849243
-0.2701792 0.025010735 0.083767 0.18922341 0.104201555 -0.13048777 -0.3620165 0.2168504
0.055875152 -0.3409742 0.30250794 -0.29803544 -0.17495106 -0.056139022 -0.19736144 0.23214483
0.3010943 -0.0965471 -0.28564316 0.21262431 0.29671 -0.21152908 0.30048162 0.31472176
-0.24268335 0.37783998 -0.40159494 0.3574546 -0.31107137 0.13829845 -0.26316166 0.04128921
-0.16025208 -0.25157243 0.07091296 0.35995758 -0.16153874 -0.0036388338 -0.39476332 0.3995607
0.048077255 -0.20016679 0.26207966 0.38493758 -0.060980618 0.14711702 0.19122219 0.1296463
-0.014275014 -0.39408213 -0.17767218 0.036183953 -0.21306822 0.07471022 0.09107074 -0.07433489
0.3742705 0.29234457 0.2942353 0.38674092 0.3943426 0.07059911 -0.37130412 -0.1485388
-0.031811923 -0.058757544 -0.3213904 0.40268546 -0.40536872 -0.14822885 0.09229839 0.18651557
-0.071478724 0.28256345 0.02097717 -0.12541434 0.11023903 -0.06858891 -0.16574897 -0.27041668
00000000: 6b7d aabe ac94 ab3e 58cf 73bd c67d cabe
00000010: 7800 e63d 30c4 5f3e f8e1 dabd 4cdd ecbd
00000020: a0c0 cb3e 24c6 b3bd e443 bdbe 985b b43e
00000030: fa60 3ebe 782e 573d 82d5 aa3e 8e4e 963e
00000040: f21d 9b3e d8de 193e 107d be3d ae6c 873e
00000050: 001b f33c 9eac a83e 7c6d 133e f2b4 95be
00000060: 1a99 803e 3264 7cbe 908b dd3d 8e0a 2cbe
00000070: 8758 91be 1eda b43e 0435 8d3d f485 663e
00000080: 341c 393e eece 20be 048d 9b3e 5c29 6d3e
00000090: e8ba fb3d 0039 6c3e 4429 d9bd 2a42 b93e
000000a0: 64db 83be 1848 77be ccd0 a13d 188a 0c3d
000000b0: 0247 963e 408e f4bd 38f8 f03d eb4b bebe
000000c0: ba4e 90be 1c65 c43e d01a 0e3d 707c d43c
000000d0: 0c8b 7fbe 0888 3abd 386a 80be cf00 74be
000000e0: a080 d03e 0f8d cebe 5406 863d 48d1 ce3e
000000f0: 2015 b1bc 5ada 9e3e d4a3 c93e 24e6 d7bd
00000100: 5cbb a53d 14a5 f7bd 9004 eebd 1281 c6be
00000110: 20f1 193e 3cb5 c13e 0851 22be b766 a8be
00000120: 1953 3dbe 98f7 c2bd f88f 6e3d d0b3 b1bc
00000130: 72e2 903e 8276 87be bfe5 acbe 6511 cdbe
00000140: a0c0 97bc 48f2 cd3d 7034 7fbe 6228 cd3e
00000150: 89b9 a2be ac0a b6bd dc51 02be 84bc 4e3e
00000160: ca91 933e d191 9fbe 70b2 64bd 00f7 e33d
00000170: 84ec 0b3e b0c1 a23d 90e1 54bd 2af1 8cbe
00000180: 8283 ab3e 0075 a8bd d1a5 51be d057 8fbd
00000190: 6aa7 8c3e 6e3a be3e c43f 0f3e 4c23 233e
000001a0: 986c 863e 58e8 e03d c48d 443e 340c 623e
000001b0: 8c6d 3b3e f0c9 5d3d c85d 153e f8e7 543d
000001c0: 170f 37be fe74 913e c8c6 133d 60b9 f5bd
000001d0: 9297 973e b469 e9bd ed4a a2be bc97 883e
000001e0: 6060 d63d 9cf3 a83d f3b6 8abe ec5a 593e
000001f0: fa62 cb3e d0a4 3a3d dc79 083e 22fd 1ebe
00000200: e03a a83d c065 c73c 960c 0bbe f800 b6be
00000210: 283d e5bd 7ceb 803d 10d2 433e 78d5 b9be
00000220: b4e7 a43e 101f e53c cc49 b4bd f864 42bd
00000230: 6c10 af3d 9639 b63e 2398 bdbe 7c31 953d
00000240: f8cc fd3d 0a46 c33e 8acd 08be 3da6 50be
00000250: da1a c13e 4c51 6a3e f006 283d 9838 1dbd
00000260: 06e0 38be f827 a03e e8d6 cb3e 5042 61be
00000270: ec6e fbbd fa05 6bbe a077 1d3d 880c 723d
00000280: 2252 cebe 90cb c53c 7602 a0be ca35 923e
00000290: abd2 95be a665 a63e b897 8d3e 2075 783d
000002a0: ac1f b23e 18b8 8e3e 202f 603c 704d 5d3e
000002b0: 0457 483e bc09 063e 90d8 62bd 707d 973c
000002c0: ee54 8abe 50e3 cc3c 088e ab3d c8c3 413e
000002d0: a067 d53d 969e 05be 3a5a b9be 080e 5e3e
000002e0: 58dd 643d 2c94 aebe 52e2 9a3e 1a98 98be
000002f0: 5f26 33be 08f2 65bd 1e19 4abe 60b7 6d3e
00000300: 0829 9a3e 7cba c5bd d23f 92be 30ba 593e
00000310: 60ea 973e 149b 58be bad8 993e 3623 a13e
00000320: fc81 78be 3e74 c13e da9d cdbe 4a04 b73e
00000330: bf44 9fbe 1c9e 0d3e 20bd 86be e01e 293d
00000340: 1f19 24be 1ace 80be d03a 913d 5c4c b83e
00000350: 696a 25be 8079 6ebb 6b1e cabe 3893 cc3e
00000360: a8ec 443d 86f8 4cbe 4e2f 863e 8a16 c53e
00000370: d0c6 79bd d8a5 163e c0cf 433e 00c2 043e
00000380: c0e1 69bc 22c5 c9be b2ef 35be a035 143d
00000390: 8e2e 5abe ac01 993d 4c83 ba3d e43c 98bd
000003a0: 62a0 bf3e 30ae 953e 02a6 963e e802 c63e
000003b0: 46e7 c93e 4496 903d 931b bebe 8e1a 18be
000003c0: 384d 02bd c0ab 70bd 488d a4be ca2c ce3e
000003d0: 7d8c cfbe 4ec9 17be f006 bd3d f0fd 3e3e
000003e0: 7063 92bd 28ac 903e 50d8 ab3c 9e6c 00be
000003f0: 00c5 e13d 5878 8cbd 19ba 29be 0e74 8abe

bias f4 [128]
0.40246356 -0.04838589 -0.22849585 0.3405416 -0.12915975 -0.27491978 0.19306856 -0.33295897
-0.15714845 -0.2742825 -0.09681207 0.2813313 -0.11107588 -0.29542023 -0.27654266 0.23308098
-0.16595644 0.0038257241 -0.020863056 -0.19115572 -0.25846434 -0.30449885 -0.07403365 -0.22883779
0.33724374 -0.16075116 -0.3847841 0.16811919 0.36168194 0.39314127 0.15838337 0.28984302
0.032185286 0.37353998 0.24380189 0.2796672 0.09415984 -0.12401825 0.16028285 -0.33045617
0.062063456 -0.4043553 0.20272464 0.005454898 -0.22381715 0.18719047 -0.010250926 0.14900398
0.38615352 0.20050526 0.3004774 0.3874566 -0.37320977 -0.112546295 -0.30737698 0.31394958
0.08886874 -0.31221014 -0.38912097 0.022322774 -0.2134211 -0.028349936 0.18522966 -0.21857966
0.107017815 -0.3773788 0.36396027 -0.25148448 0.05078599 -0.0907616 -0.07794565 -0.3127787
-0.3206982 -0.27551526 0.15826929 -0.19825807 -0.2593583 -0.26399744 0.046820074 -0.1706873
-0.025723487 -0.3121488 -0.24259652 0.07316172 0.1172781 0.05148822 0.36782032 -0.20103234
-0.19010665 -0.18667951 0.23802853 0.23080331 0.2696482 -0.041872293 -0.32225528 -0.34101796
0.023107052 -0.33914202 0.23564178 -0.06310439 -0.18826607 -0.24799468 -0.2678194 -0.012592375
-0.354158 0.052394062 -0.20782937 -0.27916956 -0.35019287 0.14876139 0.2098329 -0.31438142
-0.064124316 -0.2064426 -0.16401574 0.17201036 0.17977506 -0.15081209 0.065610886 -0.23420206
0.0026926398 0.32053214 -0.32072234 0.09057224 0.37857515 -0.23134463 -0.33670685 0.28103906
00000000: b40f ce3e 4830 46bd d1fa 69be 785b ae3e
00000010: 7442 04be 49c2 8cbe c4b3 453e 9979 aabe
00000020: 86eb 20be c16e 8cbe 6845 c6bd a80a 903e
00000030: c07b e3bd 5241 97be 0097 8dbe c8ac 6e3e
00000040: 7cf0 29be 00b9 7a3b 00e9 aabc 53be 43be
00000050: 7055 84be 46e7 9bbe f49e 97bd 7454 6abe
00000060: 36ab ac3e f49b 24be 6c02 c5be 7027 2c3e
00000070: 602e b93e d049 c93e 402f 223e 4e66 943e
00000080: b8d4 033d a240 bf3e 34a7 793e 8a30 8f3e
00000090: e0d6 c03d 48fd fdbd 3021 243e 8d31 a9be
000000a0: 4036 7e3d a807 cfbe 0c97 4f3e 00bf b23b
000000b0: 5330 65be dcae 3f3e 80f3 27bc 8094 183e
000000c0: eab5 c53e 4051 4d3e 2cd8 993e b660 c63e
000000d0: 5a15 bfbe ac7e e6bd 8460 9dbe 00be a03e
000000e0: d000 b63d 02da 9fbe dd3a c7be 40de b63c
000000f0: 108b 5abe 203e e8bc d8ac 3d3e 59d3 5fbe
00000100: 282c db3d cb37 c1be 0059 ba3e 93c2 80be
00000110: f804 503d 38e1 b9bd f8a1 9fbd 8824 a0be
00000120: 8e32 a4be 5610 8dbe 5811 223e 2a04 4bbe
00000130: 9cca 84be ac2a 87be 68c6 3f3d a7c8 2ebe
00000140: 10ba d2bc f8d1 9fbe 396b 78be d0d5 953d
00000150: 802f f03d 50e5 523d f252 bc3e 6cdb 4dbe
00000160: 51ab 42be ea28 3fbe c0bd 733e b457 6c3e
00000170: 540f 8a3e 4882 2bbd a5fe a4be e899 aebe
00000180: 004b bd3c 06a4 adbe 144c 713e e03c 81bd
00000190: d2c8 40be 51f2 7dbe a01f 89be 4050 4ebc
000001a0: 3354 b5be 289b 563d 39d1 54be 50ef 8ebe
000001b0: 7b4c b3be e854 183e 70de 563e 9af6 a0be
000001c0: 9c53 83bd b065 53be bef3 27be 7c23 303e
000001d0: f416 383e 7c6e 1abe 005f 863d aad2 6fbe
000001e0: 0077 303b ca1c a43e b835 a4be f07d b93d
000001f0: 9ad4 c13e 9be5 6cbe d764 acbe 5ae4 8f3e

weight f4 [2, 2]
-0.29092553 -0.048263192 0.48209482 0.0398854
00000000: 31f4 94be a0af 45bd 22d5 f63e e05e 233d

bias f4 [2]
0.70213395 -0.70276296
00000000: 0dbf 333f 46e8 33bf

weight f4 [6, 130]
0.04714609 -0.028229237 0.05534006 0.054148786 0.025423244 -0.023573294 0.07021699 0.06609439
-0.021474779 0.07885813 -0.012153782 -0.047861446 -0.087291434 0.04285922 0.017231166 -0.048803337
0.018139154 -0.008583151 -0.041688528 0.042041637 -0.02991651 0.0016295835 0.029214703 -0.030801374
0.06781887 0.01830177 -0.0091499835 0.025487855 0.025282063 -0.017677732 0.048238285 0.06527316
-0.05770022 -0.07390478 -0.059519082 0.0102727115 -0.013987608 -0.03719273 0.040132724 -0.021266595
0.06928734 -0.07765781 -0.06256972 0.05962012 -0.08183602 -0.060574606 0.056542926 0.018594496
-0.017115295 -0.051248226 0.011680171 0.019871473 0.037602417 -0.08564008 0.01776132 -0.007091321
-0.000679262 0.068136655 0.0051435456 0.05783496 -0.03866088 -0.06620326 0.027760938 0.0002949983
0.073787205 -0.068625934 0.07692469 0.035711728 0.02451931 -0.013553999 0.020811804 -0.07324563
-0.017014682 -0.04732634 0.053333826 0.078958385 0.042119555 -0.048404176 -0.049349025 0.019924931
-0.030542754 -0.07266879 -0.04864357 0.058737926 0.014361516 0.029900491 -0.049860153 0.034651466
0.060028113 -0.04639882 -0.0401878 0.06735814 -0.052490164 0.07897244 0.00018054247 -0.0056375638
-0.024649903 0.036557518 -0.03403254 0.027942479 0.004501626 0.07693199 0.07973782 -0.05762025
0.08687738 -0.013857275 0.076738514 0.03314043 0.073946185 -0.026164252 -0.05609018 0.02969253
0.027526177 -0.04585123 -0.021482967 -0.009775616 0.080505185 0.04039856 -0.036135588 -0.016973145
-0.0031842291 0.08594137 0.020225205 -0.06059863 4.2937696e-05 0.06995954 -0.07658269 0.071294196
-0.082842596 0.04527252 -0.07207054 0.026091643 0.040964 0.049347438 -0.06140067 -0.009730957
0.08188801 0.026690282 0.06979423 -0.031279907 0.07859204 0.0361593 0.03557373 -0.07930522
-0.083100624 0.060982473 0.048799507 -0.017963558 -0.074912556 -0.058526494 -0.021261849 -0.055393323
-0.06756897 0.0029394552 0.08372884 0.073414885 -0.0073631853 0.060649358 -0.0019077212 -0.060074568
0.046810053 -0.07566151 0.00018596649 -0.0026461557 -0.010020331 0.00026363134 -0.046517067 0.059378542
-0.06385127 -0.08650454 0.068907954 0.0003733188 -0.04485292 -0.0381702 0.0490719 0.057065733
-0.035350695 -0.026937738 0.06884528 -0.04740267 0.07020212 0.07974001 -0.04518192 -0.018541478
0.07874737 -0.05743079 0.025868908 -0.009452142 -0.014730036 -0.0022292063 0.012716576 -0.084711045
0.03761185 0.012414083 0.02736102 0.07382292 0.0692494 0.035765104 -0.05357455 0.07207697
0.079882614 -0.011388995 0.061367832 0.08135805 0.042982824 -0.012789436 0.07560805 0.086777784
-0.0009683296 0.034786873 -0.006531559 -0.00854937 0.034964927 -0.07814795 -0.06450032 -0.08747297
0.038666688 -0.08497245 0.058286898 0.07889985 0.05297298 0.080165304 -0.012893155 0.067671515
-0.05454736 0.08756406 -0.02197335 0.014236942 -0.04776576 -0.0030291304 0.048003055 -0.08645419
-0.016058333 0.03657034 -0.08273697 0.08742087 0.08644254 0.031966314 0.061891563 -0.015001453
0.0482732 0.010224611 -0.015981354 0.03732314 0.05241046 0.083962165 0.08311998 -0.04573902
-0.030570041 -0.06420333 -0.07515262 -0.0572077 0.042655148 0.01802738 0.060857557 -0.04809114
00000000: 421c 413d 0041 e7bc 42ac 623d 1ecb 5d3d
00000010: 6844 d03c c81c c1bc edcd 8f3d 7f5c 873d
00000020: e0eb afbc 5f80 a13d a820 47bc 5d0a 44bd
00000030: dac5 b2bd 268d 2f3d 6028 8d3c 02e6 47bd
00000040: 9098 943c 58a0 0cbc 97c1 2abd da33 2c3d
00000050: 7813 f5bc c097 d53a ac53 ef3c 2a53 fcbc
00000060: 9fe4 8a3d 98ed 953c d0e9 15bc e8cb d03c
00000070: 541c cf3c e4d0 90bc 8295 453d efad 853d
00000080: 1157 6cbd 645b 97bd 48ca 73bd e04e 283c
00000090: 482c 65bc 6757 18bd 3662 243d 4837 aebc
000000a0: 85e6 8d3d 0f0b 9fbd 8e24 80bd 3a34 743d
000000b0: a599 a7bd 141d 78bd 8e99 673d 7c53 983c
000000c0: 6035 8cbc a9e9 51bd 305e 3f3c 80c9 a23c
000000d0: fe04 1a3d 1164 afbd 3080 913c 505e e8bb
000000e0: 8010 32ba 3b8b 8b3d 308b a83b 5ae4 6c3d
000000f0: df5a 1ebd 9395 87bd e86a e33c 00aa 9a39
00000100: bf1d 973d c18b 8cbd b18a 9d3d 7646 123d
00000110: b8dc c83c 9811 5ebc 847d aa3c ce01 96bd
00000120: 6062 8bbc 44d9 41bd 9274 5a3d efb4 a13d
00000130: 8e85 2c3d 7543 46bd 3422 4abd 9c39 a33c
00000140: cc34 fabc 60d3 94bd 7b3e 47bd 2e97 703d
00000150: 904c 6b3c e0f1 f43c 293a 4cbd b2ee 0d3d
00000160: 0ae0 753d b00c 3ebd f69b 24bd 11f3 893d
00000170: edff 56bd 4dbc a13d 0050 3d39 50bb b8bb
00000180: 98ee c9bc 56bd 153d b465 0bbd a0e7 e43c
00000190: 6082 933b 858e 9d3d 954d a33d 3603 6cbd
000001a0: c5ec b13d a009 63bc 1529 9d3d 42be 073d
000001b0: 1971 973d 6a56 d6bc d1be 65bd c03d f33c
000001c0: 947e e13c 80ce 3bbd 0cfd afbc e829 20bc
000001d0: e7df a43d f678 253d e902 14bd 440b 8bbc
000001e0: 80ae 50bb 0702 b03d 54af a53c 4536 78bd
000001f0: 0018 3438 f346 8f3d 63d7 9cbd b102 923d
00000200: 61a9 a9bd ae6f 393d b899 93bd 24be d53c
00000210: dec9 273d 8a20 4a3d 457f 7bbd 986e 1fbc
00000220: e7b4 a73d 94a5 da3c 47f0 8e3d 5c1f 00bd
00000230: ddf4 a03d c61b 143d c2b5 113d c66a a2bd
00000240: a930 aabd c2c8 793d fee1 473d 5028 93bc
00000250: c16b 99bd 7ab9 6fbd 542d aebc 1ce4 62bd
00000260: 9a61 8abd e0a3 403b 077a ab3d 8b5a 963d
00000270: e046 f1bb 766b 783d 800c faba c010 76bd
00000280: e6bb 3f3d 6cf4 9abd 0000 4339 206b 2dbb
00000290: 502c 24bc 0038 8a39 ae88 3ebd ea36 733d
000002a0: 74c4 82bd 4b29 b1bd 9d1f 8d3d 00ba c339
000002b0: b2b7 37bd 5b58 1cbd 9eff 483d c2bd 693d
000002c0: e4cb 10bd 88ac dcbc c1fe 8c3d 4d29 42bd
000002d0: 21c6 8f3d bb4e a33d ad10 39bd 4ce4 97bc
000002e0: 4d46 a13d 8c3c 6bbd 08eb d33c 28dd 1abc
000002f0: 4056 71bc e017 12bb 3059 503c fc7c adbd
00000300: e20e 1a3d 7064 4b3c 3824 e03c 7930 973d
00000310: a1d2 8d3d 6e7e 123d fd70 5bbd 179d 933d
00000320: 7f99 a33d e898 3abc d65c 7b3d 0d9f a63d
00000330: c20e 303d c88a 51bc 65d8 9a3d 8db8 b13d
00000340: 80d7 7dba ae7c 0e3d b006 d6bb a812 0cbc
00000350: 6237 0f3d 080c a0bd be18 84bd 0725 b3bd
00000360: f660 1e3d 0906 aebd 3ebe 6e3d 3f96 a13d
00000370: 32fa 583d b52d a43d d03d 53bc 5d97 8a3d
00000380: 0d6d 5fbd c954 b33d 7401 b4bc 1042 693c
00000390: 08a6 43bd 6084 46bb da9e 443d e50e b1bd
000003a0: c48c 83bc c8ca 153d 0072 a9bd b709 b33d
000003b0: c908 b13d 1cef 023d 0282 7d3d a8c8 75bc
000003c0: 1eba 453d 2085 273c 54eb 82bc 26e0 183d
000003d0: 5aac 563d 5bf4 ab3d cf3a aa3d d758 3bbd
000003e0: 066e fabc 097d 83bd 9ee9 99bd 9f52 6abd
000003f0: 2ab7 2e3d 28ae 933c c645 793d 37fb 44bd

bias f4 [6]
-0.059742883 -0.07483198 -0.0036502108 0.0049739927 -0.044173952 -0.058148324
00000000: f4b4 74bd 8241 99bd 6038 6fbb e0fc a23b
00000010: bfef 34bd f02c 6ebd

weight f4 [1, 130]
0.05700203 0.010202862 0.012307696 0.0119152665 -0.07990576 0.07058381 -0.026991457 0.05056744
-0.08615627 0.04876811 0.019168757 0.05779975 0.03621766 0.045979 -0.021931678 -0.0826915
-0.048553154 -0.060873337 0.06399692 0.018040158 -0.07041046 0.0578719 0.025066316 -0.008160837
-0.046289098 -0.02628386 -0.035092667 -0.087282375 -0.0473159 -0.027483266 0.0061707124 0.060682647
0.001968503 0.049810655 -0.0055700243 -0.021975048 0.039977632 -0.035148386 -0.04065786 0.076669894
-0.062022835 -0.064786375 -0.033470113 -0.066644624 -0.08692611 -0.030032616 -0.07653928 0.08668279
0.086331196 0.048955612 0.081279434 -0.048402064 0.06595758 0.0734391 0.054022215 0.010044545
0.06373065 -0.048534993 0.0465438 0.018797025 -0.045052126 0.08673545 -0.06561981 -0.04889913
0.03547757 -0.030059118 -0.059032314 0.07995763 -0.034420848 -0.02821393 0.049795024 -0.04579131
-0.0050539076 0.028764077 0.01710271 -0.08361438 0.011551 -0.040057745 -0.05321151 -0.04073063
-0.041168362 0.030812114 0.07658201 -0.060230184 0.08211725 0.005965829 0.00678622 -0.0007420778
0.067432426 -0.035071757 0.049977325 -0.07327655 -0.08100201 0.049324386 0.007236466 -0.053579938
-0.023143433 0.06512902 2.1338463e-05 0.07129463 0.086363785 -0.025820855 0.05842351 0.018347979
0.04435975 0.066807814 -0.06941416 0.04920254 -0.04417135 0.012263954 0.033815317 -0.048875544
0.0005764738 -0.075777166 0.054377683 -0.08190126 -0.007082902 -0.0128380805 -0.06317169 0.046925567
-0.0657682 -0.045159962 -0.073448785 0.08759906 -0.015561432 0.01834932 0.078554146 -0.018179752
-0.045408916 0.07824773
00000000: f67a 693d e829 273c 38a6 493c 4038 433c
00000010: a2a5 a3bd 3f8e 903d 301d ddbc ce1f 4f3d
00000020: b372 b0bd 12c1 473d cc07 9d3c 6ebf 6c3d
00000030: f858 143d 7a54 3c3d 10aa b3bc 295a a9bd
00000040: acdf 46bd 5256 79bd d110 833d f4c8 933c
00000050: 5c33 90bd 160b 6d3d e057 cd3c 08b5 05bc
00000060: a399 3dbd 4051 d7bc 54bd 0fbd 1ac1 b2bd
00000070: 51ce 41bd 9624 e1bc b033 ca3b 5e8e 783d
00000080: 0002 013b 4206 4c3d c084 b6bb 0405 b4bc
00000090: 96bf 233d c1f7 0fbd db88 26bd 1b05 9d3d
000000a0: a80b 7ebd b8ae 84bd f517 09bd fa7c 88bd
000000b0: 5106 b2bd f606 f6bc a0c0 9cbd bf86 b13d
000000c0: 69ce b03d ae85 483d d575 a63d 3e41 46bd
000000d0: c514 873d 3d67 963d 6646 5d3d e091 243c
000000e0: 3785 823d a1cc 46bd b6a4 3e3d 38fc 993c
000000f0: 9488 38bd 5ba2 b13d ae63 86bd 744a 48bd
00000100: ee50 113d 8a3e f6bc decb 71bd d3c0 a33d
00000110: e0fc 0cbd e620 e7bc def5 4b3d ab8f 3bbd
00000120: 409b a5bb a4a2 eb3c fc1a 8c3c 043e abbd
00000130: 6840 3d3c 9713 24bd 50f4 59bd 29d5 26bd
00000140: 28a0 28bd b069 fc3c 07d7 9c3d edb3 76bd
00000150: 172d a83d 007d c33b f05e de3b 0088 42ba
00000160: 031a 8a3d 67a7 0fbd 06b5 4c3d 0412 96bd
00000170: 62e4 a5bd 5e08 4a3d e01f ed3b a376 5bbd
00000180: 4c97 bdbc 5d62 853d 0000 b337 eb02 923d
00000190: 7fdf b03d 4286 d3bc 7e4d 6f3d 804e 963c
000001a0: 92b2 353d 89d2 883d 0329 8ebd 9a88 493d
000001b0: 04ed 34bd c0ee 483c ee81 0a3d b931 48bd
000001c0: 801e 173a 0f31 9bbd 22bb 5e3d d9bb a7bd
000001d0: b017 e8bb d056 52bc 2960 81bd 0635 403d
000001e0: 7ab1 86bd a7f9 38bd 516c 96bd 2367 b33d
000001f0: 60f5 7ebc 5051 963c ffe0 a03d b4ed 94bc
00000200: b3fe 39bd 5940 a03d
