model.pth (torch, 17362 bytes, 10 tensors)

weight f4 [200, 1, 1, 1]
00000000: 20de 163f c0d6 dcbc dc7b 4dbf d4ca 6dbf
00000010: e84e 15bf 5ef5 0f3f 50d0 db3d 888a 41be
00000020: e86e 983e 34f5 e83e 708e 423f 10fd 81be
00000030: 20cb 51be ec95 643f 3ea2 36bf 908c f9bd
00000040: 7e23 25bf 3c91 533f b87b 053f ca11 48bf
00000050: b2ec 36bf 3a6d 523f f8ed c9be aa39 143f
00000060: 4ac4 4bbf e8f6 13be 84a4 293f e861 babe
00000070: 001b bcbe b6a0 0ebf 48e9 64be accf 3e3f
00000080: f4ef 613f 3063 0cbf 4ebc 713f 00de db3c
00000090: 801a 72bf 2ebc 0a3f 50e8 81be 9e32 6cbf
000000a0: 062a 76bf 9087 27bf a82d 69be a01f 5a3e
000000b0: bcee 933e 9220 5a3f 801e 68bc 80f2 3cbf
000000c0: 007a 5cbe c0f0 7b3f 4438 6d3f 0804 013e
000000d0: 1882 4f3f 626c 0cbf 747a fa3e 84d2 64bf
000000e0: a0ae 5e3f 3aab 5e3f 40d2 c63c 0002 06bd
000000f0: 74cb f33e 2047 3fbe 8208 603f 6c78 63bf
00000100: f005 16be 34c7 cfbe d6bb 72bf ca4b 7d3f
00000110: 2060 17be da71 1bbf cc2d c33e 0836 78bf
00000120: f4f9 353f 38bf 87be ea2c 423f e2ec 2abf
00000130: b6d0 0c3f 0034 953c 900e cd3d 6683 4e3f
00000140: d046 19be 0a08 153f b0de eabe ac82 13bf
00000150: eccd 4fbf 2a8e 5ebf 0858 4c3f 7892 023f
00000160: f0b9 f5bd 009c e83d 683b 743f 8a1c 19bf
00000170: 7482 75bf 3481 e6be 78bc cd3e 808f 91bc
00000180: 3890 d73e 34ac 9ebe 6ad5 6fbf dc5d e13e
00000190: 903a 4a3e 042b a83e c052 c23d 32ac 7b3f
000001a0: 5097 ebbd 5a07 6b3f 601c 223e 00b4 5bbc
000001b0: 70e8 613e 001b cc3d 707d 533f a4fa 673f
000001c0: 249b a13e 1e27 3cbf 18c9 1fbf 2c1f f43e
000001d0: 386d a53e a20d 57bf 78ac abbe 7c23 123f
000001e0: ca27 753f 1090 30be 4097 0fbe 8a7a 663f
000001f0: c0be ab3d c25f 443f dcc8 1cbf c096 b93c
00000200: 602f 5f3d 44cd 43bf 5486 da3e 0084 8a3c
00000210: 241b 833e cc36 8bbe 921e 223f 80df 0cbf
00000220: 68fd e7be a84c 21be 860a 42bf e0ef c43e
00000230: 48a7 c5be 6088 0e3d 40e3 293e 5024 4f3f
00000240: 1631 6d3f 22b5 513f 2488 3cbf 485a c4be
00000250: 3edc 79bf 0e28 503f ccde a83e b4ec 4ebf
00000260: 84fc 103f 8062 33be bcdb 483f 1c78 503f
00000270: 323b 21bf a8b8 123e ece9 04bf 08a7 2fbe
00000280: c892 48be 36d7 3d3f a60f 163f 9a98 2cbf
00000290: d028 87bd a85f 9fbe 22da 78bf 8c3b 643f
000002a0: a0fd a83e d8a1 28bf ba41 303f 3ce0 39bf
000002b0: b0ae b73e 64bc 213f 605d 113f b407 3e3f
000002c0: ba12 073f 20ac f1bd 2a52 443f f211 13bf
000002d0: 7489 b5be 04ba 8b3e f891 ce3e f003 8d3e
000002e0: 509f 0abf 0468 753f b0d0 aabd 5e7a 71bf
000002f0: 2239 58bf 0892 903e 280e 503e 80cb c43e
00000300: 1849 503e 60fc 283f 005d af3b d8da 253e
00000310: 6080 e7be 3641 49bf 0c02 0fbf 5062 eabe
0.58932686 -0.02695787 -0.8026712 -0.92887616 -0.58323526 0.56233776 0.10733092 -0.18900502
0.29772115 0.45499575 0.7599859 -0.25388384 -0.20487642 0.8929126 -0.7134131 -0.12185013
-0.6450728 0.82643485 0.52141905 -0.78152144 -0.7145492 0.82197917 -0.39439368 0.5790049
-0.7959639 -0.14449656 0.66266656 -0.36402822 -0.3673935 -0.55713975 -0.22354615 0.7453563
0.88256764 -0.5483885 0.94427955 0.026839256 -0.94571686 0.5419339 -0.25372553 -0.92264736
-0.9615787 -0.65441227 -0.22771323 0.21301126 0.28893077 0.8520595 -0.014167428 -0.73807526
-0.21530914 0.9841423 0.9266398 0.12599194 0.8105788 -0.5485288 0.4892155 -0.8938372
0.86985207 0.8698002 0.024270177 -0.03271675 0.4761616 -0.18679476 0.8751298 -0.88855624
-0.14650702 -0.40581667 -0.94817865 0.9894377 -0.14782763 -0.607206 0.38120878 -0.96957445
0.71084523 -0.26513076 0.75849783 -0.66767704 0.5500597 0.018213272 0.10012543 0.8066925
-0.14968419 0.5821539 -0.45873022 -0.57621264 -0.81173587 -0.86935675 0.79821825 0.51004744
-0.119983554 0.1135788 0.95403147 -0.5980917 -0.9590218 -0.4502045 0.40182853 -0.017768621
0.42102218 -0.30990756 -0.9368502 0.44016922 0.19748902 0.32845318 0.094884396 0.98309624
-0.1150347 0.9180809 0.15831137 -0.013409615 0.22061324 0.09966087 0.8261328 0.9061682
0.31563675 -0.7349719 -0.6241622 0.47680032 0.3230989 -0.8400518 -0.3353002 0.57085395
0.9576384 -0.17242455 -0.14022541 0.9003073 0.08385992 0.76708615 -0.6124399 0.022654891
0.05448854 -0.76485085 0.4268061 0.016908646 0.25606644 -0.27190244 0.63327897 -0.55028534
-0.4531052 -0.15751898 -0.7579731 0.3846426 -0.38604188 0.034798026 0.16590595 0.80914783
0.92653024 0.8191701 -0.73645234 -0.3835013 -0.9760169 0.8131112 0.3298248 -0.8082993
0.5663531 -0.17518044 0.7846029 0.8143327 -0.6298095 0.14328253 -0.51919436 -0.17153561
-0.19587243 0.7415651 0.5861763 -0.6742035 -0.06599581 -0.31127667 -0.97207844 0.8915336
0.33006 -0.65871954 0.6885029 -0.7260778 0.35875463 0.63178086 0.56783104 0.74230504
0.5276295 -0.11800408 0.7668787 -0.5744926 -0.3545643 0.27290356 0.4034574 0.27542067
-0.5414934 0.9586184 -0.08340585 -0.9432734 -0.8446218 0.28236413 0.203179 0.38436508
0.20340383 0.66010094 0.0053516626 0.16196764 -0.4521513 -0.7861513 -0.558625 -0.4577813

bias f4 [200]
00000000: e4b2 713f 8013 163d 98ed 353e 76f5 1dbf
00000010: 1004 d6bd 407c 5bbd 40da a43d 48de 383f
00000020: 5251 41bf f8c0 7e3e 5216 053f 3034 133f
00000030: a07f ddbd 3064 d2be d002 e3be 7894 5bbf
00000040: 4cbf 8b3e c2a1 6c3f 60bd 053d 6426 3d3f
00000050: 34c3 cbbe 0e15 6a3f 1c3e 8f3e b636 26bf
00000060: c4a7 1a3f 4451 6fbf e02a 5a3d f419 e9be
00000070: a4c8 bebe c00d ba3c 2a76 763f 8cfd c23e
00000080: 4ac3 223f 504a 033e 147d 933e 7017 a33d
00000090: 967e 5b3f c8c3 0a3f 081b 01bf e820 7bbf
000000a0: d27a 053f 6a82 383f 10f4 9cbe 0461 f13e
000000b0: 00ec 22bb 1404 0c3f 74c0 fc3e 384c 763f
000000c0: b6f4 523f da1a 363f a0d0 ecbd 1c9e f83e
000000d0: 0214 4e3f 6a92 45bf b01c b8be 5cde 9e3e
000000e0: e831 483e d43f cabe 3ae0 3dbf e4cd 993e
000000f0: d87d 46bf 54b3 75bf 4a89 5b3f 7c13 6d3f
00000100: d888 283e 5a70 1dbf 283c debe 70a7 1cbe
00000110: 2468 c13e 0061 6b3d 581c 4dbe 824c 77bf
00000120: c459 0fbf b0f8 b3be 6c42 e7be 8269 5bbf
00000130: aeaf 56bf c4b7 ae3e e879 60bf 989f a1be
00000140: 90a3 20be 806a 86bd 8e92 70bf 7404 993e
00000150: 2c7b 533f 48e2 9e3e a6fe 5dbf ee7d 0a3f
00000160: 3894 b4be 4c35 3dbf 900c 81be f0f2 cd3d
00000170: 64cf 0fbf 1091 53bf 5657 693f 700d c83e
00000180: 5064 d5bd 2eed 6b3f 8818 c43e e006 3a3e
00000190: 205b 7fbe 3c80 b8be 2442 a3be 1a17 2dbf
000001a0: 0891 0b3e 88d5 41bf aced f7be 58b1 fa3e
000001b0: 4a5d 733f e6f0 253f 7266 703f 0089 86be
000001c0: 14d2 edbe 6026 723d cc23 0b3f 003d bc3c
000001d0: 869e 583f a806 55be 40c1 0a3d 58cc 6c3e
000001e0: 1a0e 43bf 80b5 6fbf cea5 713f ca2d 13bf
000001f0: b6b3 6a3f f0ef 493f 842a 543f b4aa 173f
00000200: 984e 0b3e 1054 76bf 48c1 2fbf 3eb9 1a3f
00000210: 449c 5e3f 6058 3e3d 4c82 0d3f 747e 343f
00000220: 629e 143f 2ca4 333f 0494 2c3f 2ac5 623f
00000230: 4049 f3be 30cd 823d aa7b 29bf ac4f c43e
00000240: 64f4 ccbe 00af e43b 6851 2dbe f298 6f3f
00000250: a4fc e9be a24b 47bf 48bb 93be 08e5 bfbe
00000260: 00be 9cbc d87d c6be 146d f43e f0e4 fb3d
00000270: ba00 7abf 28a8 ecbe 4868 bf3e 8801 6cbf
00000280: 784e f8be 069e 263f 5448 15bf d821 b23e
00000290: 50d2 e33e c4a4 283f 3621 5bbf e8d0 bebe
000002a0: 30ac 9cbd 685b 5bbf ea4a 653f ae4b 7dbf
000002b0: e0f6 6dbd a467 6f3f c018 dabc c6c3 30bf
000002c0: 36b7 6fbf 30bc dfbe 14f4 e33e 0030 e83d
000002d0: 9e9d 2dbf 2860 eebe de15 02bf 683b 49bf
000002e0: f0de 503e c018 bdbc 7e90 373f b826 4c3e
000002f0: 82e6 783f 0025 a6be 5a68 18bf d83b 5c3f
00000300: 5253 3b3f 5012 88be c03b 85bc dc19 27bf
00000310: f6e1 78bf 607d 63bd d0bf 59be b892 6d3f
0.9441359 0.03663969 0.17766416 -0.6170267 -0.104499936 -0.05358529 0.080494404 0.72214174
-0.7551471 0.24878299 0.51987183 0.57501507 -0.10815358 -0.41092062 -0.44338083 -0.8577342
0.27294385 0.9243432 0.032651305 0.73886704 -0.39797366 0.91438377 0.27977073 -0.6492723
0.6041224 -0.93483377 0.053263545 -0.45527613 -0.37262452 0.022711635 0.96274054 0.38084066
0.6357924 0.12821317 0.28806365 0.07963455 0.8574003 0.5420499 -0.5043187 -0.98097086
0.52140534 0.72073996 -0.30654955 0.4714433 -0.0024859905 0.5469372 0.4936558 0.9621005
0.8240465 0.7113472 -0.115632296 0.48558128 0.8049928 -0.77176535 -0.35959387 0.31029022
0.19550288 -0.39501822 -0.7417027 0.30039895 -0.7753577 -0.9597676 0.8575636 0.92607856
0.16458452 -0.6149956 -0.4340527 -0.15298247 0.37774765 0.057465553 -0.20030344 -0.96601117
-0.55996346 -0.3515067 -0.45167863 -0.8570787 -0.83861816 0.34124577 -0.87686014 -0.31567073
-0.15687394 -0.06563282 -0.93973625 0.2988621 0.8260982 0.31032014 -0.8671669 0.54098403
-0.35269332 -0.7390945 -0.25204897 0.10056102 -0.5617583 -0.8264322 0.9114889 0.39072752
-0.10419524 0.9215878 0.38299966 0.18166685 -0.24937105 -0.36035335 -0.318864 -0.67613375
0.13629544 -0.7571645 -0.48423517 0.48963428 0.9506422 0.64820707 0.9390632 -0.26276398
-0.4644934 0.05911863 0.54351497 0.022978306 0.8461689 -0.2080332 0.033875704 0.23124826
-0.7619339 -0.9363632 0.9439362 -0.57491744 0.9168047 0.7888174 0.82877374 0.5924485
0.136042 -0.9622202 -0.686543 0.6043891 0.8695719 0.046471 0.5527694 0.7050545
0.58054173 0.7017238 0.67413354 0.885821 -0.47516823 0.06386793 -0.6620432 0.38342035
-0.40030205 0.0069788694 -0.16925585 0.9359275 -0.45700562 -0.7784978 -0.28853822 -0.37479424
-0.019133568 -0.38767886 0.4773947 0.12299526 -0.9765736 -0.46222043 0.37384248 -0.92189837
-0.48497367 0.65084875 -0.5831349 0.34791446 0.44496393 0.6587641 -0.8559755 -0.37268758
-0.0765003 -0.8568635 0.89567435 -0.98943603 -0.058096766 0.9351752 -0.02662313 -0.69048727
-0.9363893 -0.43698263 0.44522154 0.1133728 -0.6781863 -0.46557736 -0.50814617 -0.7860627
0.20397544 -0.02308309 0.7170485 0.19936645 0.97226727 -0.32450104 -0.5953423 0.86028814
0.7317401 -0.2657647 -0.016263843 -0.65273833 -0.9721979 -0.05553949 -0.21264577 0.92802

weight f4 [1, 200, 2, 1]
00000000: 863b 29bd 20fe 47bd 94b5 2f3c 0406 82bc
00000010: d233 d83c e45b 5c3c c88d 16bd 9516 213d
00000020: 320b a53c 6d55 a2bc 12c7 f63c 0ae1 b83c
00000030: 7ee1 a53c 0471 4e3c 80f1 4dbc e0b8 5abc
00000040: 9819 d1bb 9411 3ebc 493e 0b3d e629 0abd
00000050: c72e ecbc 50e9 983b e727 bbbc 6d32 41bd
00000060: 74f2 90bc 8d30 2a3d a8ba f63b 0a92 a2bc
00000070: a0a2 babc a05c 34bc a204 f23c 98da ac3b
00000080: e244 21bd d01f c93b 8153 223d fdfe bebc
00000090: b0aa ef3b 286d 3bbc c0ac 4cba f488 143c
000000a0: cef4 e43c bfc0 3dbd 1db3 33bd eb3e 32bd
000000b0: 6312 1ebd 4cf0 01bd fa74 01bd 8928 353d
000000c0: e6b7 90bc baa7 f83c 5288 873c 723f db3c
000000d0: b8d1 56bc d0af b2bb c7d2 4b3d 9077 9dbc
000000e0: 20d1 09bd 02a7 12bd c044 2dba 5682 2cbd
000000f0: 278e 133d 5b2f 123d 5428 003c 6b8c 33bd
00000100: 622e dd3c 1e89 20bd b8b1 3dbc ee2d 0bbd
00000110: 4d23 103d 4b67 19bd 4024 e9bb 9819 ea3b
00000120: 41ae 003d 408f 06bd ab48 28bd 7dbe eebc
00000130: 2297 05bd 5856 f83b 20e8 c0bc 0816 1fbd
00000140: 77c6 4a3d 9533 22bd 5760 42bd 506c aabb
00000150: b4ca 7cbc 4050 f7bc b4e8 6c3c 128e ad3c
00000160: d41c 7fbc c00a d23b eeb8 913c 7a74 8bbc
00000170: fe19 1bbd 26ed 933c e042 713b cfb4 0c3d
00000180: 30c6 d3bc 5211 f83c b0a6 af3b 108d 3abd
00000190: 934c f8bc 00ec 383b a3f8 a7bc e72b fbbc
000001a0: a2d2 8f3c b649 fd3c c0a0 b9bb aa0f e9bc
000001b0: dd50 fbbc 4a65 a33c aa99 bd3c 4800 06bc
000001c0: 12a1 9f3c 52d0 cb3c baae e6bc 5e42 01bd
000001d0: 9043 cdbb 30ce 0c3b 78e8 21bd e2d2 ff3c
000001e0: 4735 483d c7f1 d5bc 30fe 87bc 83d0 39bd
000001f0: 1f5a 333d fa43 aebc 8014 063c e80a 2ebd
00000200: e810 5fbc 935f d0bc 4312 133d ac8c 00bd
00000210: de77 c93c 79cc 473d f636 16bd f697 19bd
00000220: c01f 90ba f717 3fbd 2544 123d 9bfa 2fbd
00000230: 6097 b3ba 23c7 33bd 56b3 c63c d036 ddbb
00000240: fdfe bebc f211 1cbd 987c 75bc 1dc1 3b3d
00000250: a806 5dbc 5020 c3bb 125e 30bd bf30 133d
00000260: 3eb5 e23c 803b e53b 0a67 0fbd e8ff 6abc
00000270: fd34 40bd 12da be3c 4686 8a3c d496 083c
00000280: e0eb 84bc fcb2 6a3c f54e 24bd b8c7 1bbd
00000290: 8bcc 4c3d 122e a13c 0077 b8bb 809e aa3b
000002a0: e073 433b 674f 3f3d 5d6c 053d eb15 4bbd
000002b0: 8064 673b 1444 27bc 9281 883c 7029 f63b
000002c0: 70e5 34bd e864 163c a286 e23c 0034 483a
000002d0: 0a7c dc3c eab3 efbc 8ad6 81bc 40ce d23b
000002e0: f377 acbc e726 1f3d fd29 b1bc 8691 23bd
000002f0: 6060 6a3b fc89 93bc 526b af3c 97a8 d7bc
00000300: d816 4abd ece7 773c b0cc 0b3b 4148 4a3d
00000310: 1a59 30bd b1cc 403d 304e f23b 7ac7 9cbc
00000320: 32c1 12bd 0368 a3bc 8ca6 2cbc f643 bf3c
00000330: fe9e b83c e835 71bc 2f66 063d f2a3 953c
00000340: 1d1f 43bd a0b2 7abc 8080 e6bc 52bf 973c
00000350: e2de 2ebd b183 083d 6ce0 5cbc aef9 943c
00000360: a8b5 2bbc f1d2 2b3d 5085 ddbc ac5f 30bc
00000370: ef24 4c3d 505d fabb c678 b83c b031 f3bc
00000380: 9d51 41bd 18ef 46bc 0023 c5b9 2d4c 2ebd
00000390: e89c 493c bf5a 35bd f032 f3bc 90e8 8ebb
000003a0: eade 3bbd 89f9 413d 8895 033c 2db6 33bd
000003b0: 70b9 e0bb 0c21 97bc 183d e0bb cfa2 483d
000003c0: b09f b1bb ca0c 1dbd b240 f73c b0da f5bc
000003d0: acc6 72bc 00da c1b8 9a4e 4cbd e8c6 963b
000003e0: 2d6b d7bc b7a7 213d 7170 2d3d d06c 98bc
000003f0: b33f d2bc f23e f43c 243a 5f3c d09f 9dbc
-0.04131653 -0.048826337 0.010724444 -0.01587201 0.026391897 0.013449643 -0.036756307 0.039328177
0.02014694 -0.019816125 0.030124221 0.022568244 0.020249125 0.012600187 -0.012569785 -0.013349742
-0.006381225 -0.011600871 0.033994947 -0.033731364 -0.028830899 0.004666485 -0.022846175 -0.04716723
-0.017693736 0.041550208 0.0075295754 -0.019845027 -0.022782624 -0.011008412 0.029543225 0.005275082
-0.039372332 0.0061378255 0.039630417 -0.023314947 0.0073140487 -0.011439599 -0.0007807724 0.009065855
0.027948763 -0.046326395 -0.043871988 -0.043517035 -0.038591754 -0.031723306 -0.0316057 0.04422811
-0.017665815 0.030353416 0.016544495 0.026763652 -0.013111524 -0.0054530874 0.04976156 -0.01922205
-0.033646703 -0.035803802 -0.0006609671 -0.042116486 0.03602424 0.035689693 0.007822115 -0.043835085
0.026999656 -0.039193265 -0.011578016 -0.03397935 0.035189915 -0.037452023 -0.007114917 0.0071441643
0.03141618 -0.032851458 -0.041084927 -0.029143566 -0.032614835 0.0075786524 -0.023548186 -0.03883937
0.049505677 -0.039599974 -0.047455158 -0.0052009 -0.015429188 -0.030189633 0.014459778 0.021185908
-0.015570838 0.006409973 0.017788377 -0.017023314 -0.037866585 0.018057417 0.0036813542 0.03435212
-0.02585134 0.030281696 0.005360447 -0.045544684 -0.030309951 0.002821684 -0.020504301 -0.030660583
0.017556492 0.030918937 -0.005664915 -0.028449852 -0.030678207 0.01994576 0.023144562 -0.008178778
0.019485984 0.024879608 -0.028159488 -0.031557433 -0.0062641576 0.0021485202 -0.03952834 0.031228486
0.048878934 -0.026116265 -0.016600698 -0.045364868 0.043787118 -0.021272648 0.0081835985 -0.04249087
-0.013614871 -0.025436198 0.035906088 -0.031384155 0.02459329 0.048778985 -0.03667351 -0.037498437
-0.001099579 -0.046653714 0.03570952 -0.042963605 -0.001370173 -0.043891083 0.024255436 -0.006750919
-0.023314947 -0.03810305 -0.014983319 0.045838464 -0.0134903565 -0.0059547797 -0.043058462 0.03593516
0.027674314 0.0069956183 -0.035010375 -0.014343239 -0.046925534 0.023297343 0.01690973 0.0083367415
-0.016225755 0.0143249 -0.04011436 -0.038032264 0.049999755 0.019675288 -0.0056294203 0.005206883
0.0029823706 0.046706583 0.032574046 -0.04958145 0.0035307705 -0.010209102 0.016663346 0.007512264
-0.04416412 0.009179331 0.027652089 0.0007637143 0.026914615 -0.029260594 -0.01584937 0.0064332783
-0.02105329 0.03885546 -0.021626467 -0.039933704 0.003576301 -0.018010132 0.021413479 -0.026325507
-0.04933819 0.015130978 0.002133172 0.049385313 -0.043053724 0.04707021 0.0073945746 -0.019138087
-0.035828777 -0.019947058 -0.010537755 0.023347836 0.02253675 -0.014722325 0.032812294 0.018266652
-0.047637094 -0.015301377 -0.028137445 0.018523846 -0.042693026 0.033328716 -0.013481241 0.018185463
-0.010480322 0.041949216 -0.027041107 -0.010764997 0.04983991 -0.0076405182 0.022518527 -0.029686779
-0.047196973 -0.012141965 -0.00037600845 -0.042553116 0.012305476 -0.044275995 -0.029687375 -0.0043612197
-0.045866884 0.047357116 0.0080312565 -0.04387491 -0.0068580434 -0.018448375 -0.0068432204 0.04898339
-0.0054206476 -0.038342275 0.030182216 -0.030011505 -0.014817875 -9.243563e-05 -0.049879648 0.004601348
-0.026296223 0.039466586 0.04234356 -0.018606573 -0.02566514 0.02981517 0.013624702 -0.019241244

weight f4 [128, 6]
00000000: ba35 48be 7873 8dbd aa52 873e 6403 a43e
00000010: 1096 5ebd 6ca1 00be d597 b1be 2a08 983e
00000020: 24b2 c0bd 1c76 8fbe 938f b0be 74e5 ae3e
00000030: 92a2 49be 1cdd 8b3e 388d 8e3e c3f9 cfbe
00000040: dc40 a7bd b670 a3be f471 a63d 7257 3abe
00000050: 2089 89be 25af 42be 9ccd d9bd 3839 8bbe
00000060: 0fb0 b1be f64e 833e 9ce5 d4bd fa53 50be
00000070: d0a8 2cbe 3cee a6be 3015 963c 8286 8cbe
00000080: 684a 433d 4c5a 72be 942f b2bd a859 b73d
00000090: 0347 7abe 9ae8 afbe 30d8 a9be b431 80be
000000a0: 0490 adbd a729 2ebe 2ca4 bc3e d2f4 a53e
000000b0: f0bc 82be 63d2 9ebe e413 8c3d 223c cc3e
000000c0: 9873 6f3d 9b62 2dbe 9079 e2bd 9871 663e
000000d0: 8fa6 39be 0cf1 1d3e e0e9 7dbc 54bd 9b3d
000000e0: 424b 2dbe 2057 ba3d d418 f6bd 23f3 80be
000000f0: 82d1 00be 1266 9dbe bc03 873d c0e5 aabc
00000100: 881a 93be 70a9 e0bd 8880 74bd d4ff a23d
00000110: 0c31 763e 4cd1 bbbe 4c13 bb3d 302a c6bd
00000120: 044a 34be 8034 73bc 201e 27bd 5a1f ae3e
00000130: a20a c23e a419 e7bd 34fa 203e 9659 12be
00000140: f4fa 15be d881 78be 885d 69bd d20e cb3e
00000150: 0465 b9bd c4de 203e 482f 3d3e 3cc0 c9bd
00000160: dc97 89be 24d4 083e 90d5 b93e 4249 3fbe
00000170: 30c0 fd3d 408c f93c 80e4 403c b80a fb3d
00000180: 500d b4be be97 b93e fc6d 9fbe 4094 cb3d
00000190: 8a9e be3e 80fb b83e fd73 2bbe 40cd 8cbe
000001a0: 0e76 13be e022 d23c f493 183e 10d4 ee3c
000001b0: 75ae 9bbe d65b 6bbe 82cf 84be 2a72 2fbe
000001c0: 30af be3e 8ce9 c0be 3a50 843e 8754 92be
000001d0: 9e8b bdbe d097 ad3e 08d9 98be 3c01 9ebd
000001e0: 94df 4b3e 94c1 a63e b028 cd3d dba7 51be
000001f0: fc62 e0bd 46e2 963e 4f35 b2be f240 06be
00000200: 7296 cbbe 042a 07be 8bf7 7ebe f08f 99bd
00000210: 64ca b4bd b87a 313e 493f 8dbe aa36 cc3e
00000220: b88e ef3d 303f 2a3e 4445 8c3e 2c62 7a3e
00000230: b860 873e a478 713e 7f3f 4dbe 08f9 dabd
00000240: 3242 73be 36b9 ac3e 8c2a 0b3e 66e9 cf3e
00000250: 1858 babd 801e cd3b 0c3d ae3e df60 c6be
00000260: 4f6a 49be 50a8 3d3e d00a 703d 1bf8 9ebe
00000270: 0246 b43e c5e0 67be f025 4abe 60e9 953d
00000280: 5092 a13c 04c3 03be 32f4 92be d4f0 673e
00000290: e048 613d 1ba2 3dbe ba52 883e ecc8 babd
000002a0: 1267 863e 6073 283e 3860 ddbd f038 5f3e
000002b0: fca8 b73d 38b0 fb3d d060 2a3e f0f5 943d
000002c0: c0b0 63be d7fc c6be b805 cebe 4071 733d
000002d0: 607f 233e a28a a43e 78a4 7cbe f7ce ccbe
000002e0: 4104 9bbe d5b5 5dbe 7008 c33e 2280 853e
000002f0: d6ab a13e e590 bcbe e05e 96be 4a98 b9be
00000300: d4fa 173e 08d9 7b3e 949d cbbd 80d8 89bd
00000310: a4c9 ccbe 2406 673e b03f d43d 78f2 9c3e
00000320: a0ed 2ebd 0b71 b3be 72eb c53e ad28 31be
00000330: 685c 733e 94a7 1c3e e83c 1d3e 8a84 40be
00000340: 6597 7bbe 8402 bfbe 9cb6 9e3e f8d3 b73e
00000350: 4cfd 0cbe b2fc 9ebe 3cad 87be 2e06 8ebe
00000360: fa45 08be c8ff a1bd 2ca5 9c3e 4b63 89be
00000370: 6017 80be 5c1e 21be 7440 933e fc8d ba3e
00000380: c28f b0be 1c32 8fbe ec21 f9bd 4016 da3d
00000390: 13ad 98be 8032 eb3d 000a 693b 5893 cf3e
000003a0: 6c06 8b3d b217 873e 14f6 bebd f8b6 6abe
000003b0: 3c44 783e ba0d 943e 2486 2e3e 7462 7c3e
000003c0: 0000 58b6 f4f6 8e3d cca0 533e 08f4 043d
000003d0: f595 a8be b02e 243e 484b 8fbd daf0 6ebe
000003e0: 082b 223e 0072 763b a45e ab3e 404c 05bd
000003f0: c065 d73b 08a3 a73e c019 0dbc 6ec2 bc3e
-0.19551745 -0.069067895 0.26430255 0.32033837 -0.05434233 -0.12561578 -0.3468615 0.2969373
-0.09408978 -0.28019798 -0.34484538 0.34159434 -0.19690922 0.2731713 0.27842116 -0.4062024
-0.08166668 -0.3192193 0.081272036 -0.1819742 -0.2686243 -0.19012125 -0.1063492 -0.27192092
-0.34704635 0.2564618 -0.10395357 -0.20344535 -0.16861272 -0.32603633 0.01832065 -0.2744637
0.04767838 -0.23667258 -0.08700481 0.089526474 -0.24441151 -0.34357148 -0.3317275 -0.2503792
-0.084747344 -0.17008077 0.36844003 0.32413346 -0.25534773 -0.31019887 0.06839731 0.39889628
0.05845985 -0.16932146 -0.110583425 0.2250427 -0.18129943 0.15423983 -0.015497655 0.07604471
-0.1692324 0.09098649 -0.12016454 -0.251855 -0.12579921 -0.30741936 0.06592509 -0.020861506
-0.2873118 -0.10969818 -0.05969289 0.079589516 0.24042147 -0.36683118 0.0913454 -0.096760154
-0.1760636 -0.01484406 -0.040800214 0.34008294 0.37898737 -0.112841874 0.15720445 -0.14291987
-0.14646512 -0.24268281 -0.056973964 0.39659745 -0.0905247 0.15709978 0.18475068 -0.09851119
-0.26873672 0.13362175 0.36295748 -0.1868029 0.123901725 0.030462384 0.011773229 0.12257904
-0.35166407 0.36248583 -0.311386 0.09940386 0.3723033 0.3612938 -0.16743465 -0.27500343
-0.14400503 0.025651395 0.1490019 0.029153854 -0.30406538 -0.22984251 -0.25939566 -0.17133394
0.37243032 -0.37678182 0.25842458 -0.28580114 -0.37020582 0.33904886 -0.29853082 -0.07715079
0.19909507 0.32569563 0.10017526 -0.20474188 -0.1095638 0.29469508 -0.34806296 -0.13110712
-0.39763218 -0.13199621 -0.24899118 -0.07498157 -0.088276654 0.1733197 -0.27587345 0.39885455
0.11697143 0.16625667 0.27396595 0.24451512 0.26440978 0.23581177 -0.20043753 -0.1069203
-0.2375572 0.33735055 0.13590449 0.40607756 -0.09098834 0.0062597394 0.3403095 -0.38745782
-0.1966946 0.18521237 0.05860406 -0.31048664 0.35209662 -0.22644337 -0.19741035 0.073199034
0.019723088 -0.12867361 -0.2870193 0.22650462 0.05500114 -0.1851887 0.26625615 -0.09120354
0.2625051 0.16450262 -0.10809368 0.21799064 0.08967778 0.122894704 0.16638494 0.07273471
-0.22235394 -0.38864776 -0.40238738 0.059434175 0.15966558 0.32137018 -0.24672115 -0.40001652
-0.30276683 -0.21651395 0.38092375 0.2607432 0.31576413 -0.36829296 -0.2936926 -0.36249
0.14841777 0.2459451 -0.09942165 -0.06730747 -0.3999759 0.22560936 0.1036371 0.3065374
-0.042707086 -0.35047182 0.38656193 -0.17300673 0.23765719 0.15298301 0.15355265 -0.1880056
-0.24569471 -0.37306607 0.30998695 0.35903907 -0.137685 -0.31052166 -0.26499355 -0.2773909
-0.13307944 -0.079101145 0.30594766 -0.26833567 -0.25017834 -0.15734237 0.2876011 0.3643645
-0.34484679 -0.27967918 -0.12164673 0.10648775 -0.29819545 0.114842415 0.003555894 0.40542102
0.06788334 0.26385266 -0.093242794 -0.2292136 0.2424478 0.28916723 0.17043358 0.24646932
-3.2186508e-06 0.06980696 0.20666808 0.03245929 -0.32926908 0.16033435 -0.06996781 -0.23334065
0.15836728 0.003760457 0.33470643 -0.03254342 0.006573409 0.3274157 -0.008612096 0.36867088

bias f4 [128]
00000000: 3400 c13e aae5 8bbe a026 5b3e 149b 783e
00000010: 248a c9bd 30be 533d 3008 a43d 327b c03e
00000020: 5059 c83e 7041 20bd ba90 8ebe a0d0 2ebc
00000030: 687a cd3d 583d f63d 004f 0bbd 9885 533e
00000040: d0f3 f23d be2e 83be 30d4 613d 385b bb3e
00000050: 38f5 e03d 48ff 293e 2ce2 733e 929b cdbe
00000060: 604e 8a3d 782e 093e 006e debb 0cd4 793e
00000070: dfe6 61be 308c a93e a8fa fd3d da5d 983e
00000080: 06c2 b23e 4128 4cbe b3e8 a7be d34a abbe
00000090: d8f7 3e3e c5b5 77be 9403 adbe ca9f 8abe
000000a0: 1ad3 8f3e b2f4 8c3e 886c 703d af9f 84be
000000b0: 8610 a23e badd 5cbe a0e4 02be d0bf be3e
000000c0: c068 4c3e 2a5e a9be 1019 0ebd 18c4 b4be
000000d0: 9d89 22be 74a4 3ebe fd8d abbe 32d0 a03e
000000e0: 0cf1 b33e aeb4 cebe 928c b03e 2a36 923e
000000f0: f80a 083e ec57 563e f07c 0f3e e857 813e
00000100: d800 4b3d 7456 58be 88e2 5c3d e461 cbbe
00000110: b0c6 133d 0407 04be 0a13 c63e 4259 a7be
00000120: 0c3f 8e3e 3c8f 0f3e 98ec 303d 9caa 343e
00000130: 087e be3d e032 363e 6c85 bfbe c864 bf3d
00000140: 4c0e 9fbd 66eb 6bbe e017 213d b4b7 253e
00000150: 287a adbe 50ab 9c3c d1c7 85be 1672 a9be
00000160: e800 0b3e 6a59 b0be b404 003e 6c8a 093e
00000170: fc89 483e e261 b33e 4055 90bc 1663 82be
00000180: b865 81be 9d11 c1be d664 32be 20f0 203e
00000190: c002 c0be c07c 433c 5e75 88be 1fdb 34be
000001a0: c014 033c 10bc 8dbc 4eef c33e 7079 94bc
000001b0: e841 03bd c97d 39be 2834 ef3d b00e ddbd
000001c0: 5efe c23e 98a1 b0be 068a 8d3e 90d3 ee3c
000001d0: e06d 93be ba60 93be fafd 21be b07e 583e
000001e0: 2ea6 8b3e dcd0 523e 8618 28be 4abe 46be
000001f0: 0855 673e a896 d63d c0d4 803d 2c16 cebe
0.37695467 -0.27323657 0.21401453 0.24277908 -0.09840801 0.05169505 0.08009374 0.3759399
0.3913064 -0.039124906 -0.27844793 -0.010669857 0.10033113 0.12023419 -0.034010887 0.2065643
0.1186291 -0.256216 0.055134 0.36593032 0.10984272 0.16601288 0.23816746 -0.40157753
0.0675323 0.13396633 -0.0067880154 0.24397296 -0.22060727 0.33114767 0.124013245 0.29759103
0.34913653 -0.1993723 -0.32794723 -0.33455524 0.18649232 -0.24190433 -0.33791792 -0.27075034
0.28090745 0.27530438 0.058697253 -0.2590308 0.3165323 -0.21568957 -0.12782526 0.37255716
0.19961834 -0.33079654 -0.03469187 -0.35305858 -0.15872808 -0.18617421 -0.33506766 0.3140884
0.35144842 -0.40372223 0.34482247 0.2855695 0.13285434 0.20931977 0.14012504 0.2526238
0.04956135 -0.21126729 0.053926975 -0.39723122 0.036078155 -0.12893301 0.386864 -0.32685286
0.27782476 0.14019483 0.043194383 0.17643207 0.09301382 0.17792845 -0.3740648 0.093453944
-0.07766399 -0.23039016 0.03932941 0.16183358 -0.3388226 0.019124657 -0.2612901 -0.33094853
0.13574564 -0.34443218 0.12501794 0.1343171 0.19583887 0.35035616 -0.017618775 -0.25466222
-0.25272918 -0.3770875 -0.17421278 0.157166 -0.37502098 0.011931598 -0.26652044 -0.17661713
0.008000553 -0.01730159 0.38268512 -0.018124312 -0.032045275 -0.1811439 0.1167987 -0.10793817
0.38084692 -0.34498286 0.27644366 0.029153615 -0.28794765 -0.28784734 -0.1581954 0.21142077
0.27275223 0.20587486 -0.16415605 -0.19408527 0.2259103 0.10477954 0.06290579 -0.4025129

weight f4 [2, 2]
00000000: e4fc 2fbe ea14 de3e a34c 23bf 5893 d7bd
-0.17186314 0.4337533 -0.63788813 -0.105261505

bias f4 [2]
00000000: 7193 023f c8e8 733e
0.5100623 0.23819268

weight f4 [6, 130]
00000000: e638 0d3d de69 183d f699 d2bc e214 9dbd
00000010: 6e8c 583d 822e 3d3d e816 30bd 84c5 88bd
00000020: 20dd 4abd 9224 91bd ecf7 50bd 9f5b 25bd
00000030: de2e 353d 5bdd 8e3d f89a a5bc ba26 003d
00000040: c69c 6e3d 1ea5 97bd d102 a2bd e80b 183c
00000050: 78fd 2dbc f0d7 ec3c 42f5 273d d8d7 87bd
00000060: cccb 08bd f022 2c3c 5649 5f3d b66c fcbc
00000070: 96e1 293d df39 0bbd 70fe 723c c721 07bd
00000080: 209c 03bb 80af a73c 3af8 5f3d 5b9e adbd
00000090: cf23 57bd 9a11 01bd 1f40 813d 346b 79bd
000000a0: eada 11bd c1b0 b23d b587 93bd 5cdd d53c
000000b0: 9a3e 1bbd d09c fd3c b0c0 90bb 9231 05bd
000000c0: 5676 4d3d b8c8 653c fc24 893c 78ed 22bd
000000d0: f424 f6bc 96ff 183d d73c 923d 6e04 123d
000000e0: 4bad 953d 0689 a4bd 8a54 42bd b84e 09bc
000000f0: 1c76 c03c 1406 98bd 11a5 923d 28c5 723c
00000100: 5894 713c f313 b1bd 21d3 823d 2053 e63b
00000110: e048 4fbb 9ca4 db3c 62a8 523d 0856 77bc
00000120: 400f c83c 33da 50bd ef6f a93d d5ff 87bd
00000130: f841 9b3c f169 18bd 91f3 97bd f707 40bd
00000140: 4331 873d e0cb 0bbc e500 993d 8056 6ebb
00000150: 58e5 b4bc 016b 0dbd 7193 28bd 4057 c83b
00000160: a2b6 183d a194 9e3d 3087 033c 1c39 903c
00000170: 9de8 a3bd e01b 5dbb f646 6e3d e91d 98bd
00000180: e776 7fbd 13cc ab3d 2033 adbd 0d5d 863d
00000190: ced5 73bd 3041 76bd 4e9c 6e3d a464 813c
000001a0: fefb 783d db7d 7bbd 40d5 623c 7c64 d53c
000001b0: ae12 7b3d 9e05 493d 187d 92bc 6b16 a83d
000001c0: 5a4a 6b3d 3daa 64bd 156b b0bd 295e 95bd
000001d0: 94c5 b1bc 5e17 543d e070 bebc cf8e 20bd
000001e0: 8f6c a73d fbd3 88bd 641d 8abc f058 b53c
000001f0: 50e1 ed3c 8741 8d3d 3003 5cbc 9ef4 4b3d
00000200: b50d 9dbd a00d 44bb 889a 7ebd de21 3ebd
00000210: 8dfc 48bd a096 a2bc 29a3 01bd 3e75 e0bc
00000220: 0413 00bd c8c7 24bd 6b23 9a3d f524 a23d
00000230: 55d7 8d3d 33a4 57bd 3601 74bd 467a 1e3d
00000240: fb72 9d3d 5f6b aebd 94d5 9bbc 0e6f 523d
00000250: a8f8 33bc 58e5 543c 67a8 973d 003e 42bc
00000260: 9aba d3bc acf5 46bd 5009 1dbc 48ff 1e3c
00000270: d860 66bc f493 cfbc 800a 583a ab9f 973d
00000280: e069 c63b 3cf9 06bd aece 433d 64b6 853c
00000290: be92 5b3d eadb 053d 5da9 a13d 10b3 663c
000002a0: f0c2 f1bb d048 83bd 3d33 803d ea20 773d
000002b0: bc9d 66bd 5cd6 053d d506 b2bd 207b 37bd
000002c0: a087 febb 5aed 063d 2ca0 acbc 32dd 56bd
000002d0: ea84 463d d83f 6cbd b2a1 653d 809f 8abc
000002e0: 601e 563c c20d 023d 2680 07bd a945 b03d
000002f0: 51f1 94bd 00d0 88ba 10cc b43c 6c45 bf3c
00000300: 8c7e d33c d086 6d3c 95e0 823d e375 923d
00000310: ed22 883d 5fe7 34bd fbe9 60bd 80cf 98bc
00000320: fe6c 693d 22ca e9bc 88cf 7abc 85c8 a03d
00000330: 8eba 6b3d 13b8 51bd 1097 b13c f43b da3c
00000340: b60d 753d e003 b6bb d381 8b3d eb8b b33d
00000350: 50cf 913b b4b9 f83c 8d99 91bd d8a5 90bd
00000360: 7006 c3bc 9c18 a5bc 1de6 9ebd 68b4 00bd
00000370: 8c20 a0bc ed9e 90bd e680 95bd d31c b33d
00000380: 8dda a9bd f077 a4bd 5984 a4bd 7681 663d
00000390: 0aff 1e3d a0e9 2e3b e0bf 043b 1f4f a03d
000003a0: 4ff1 ad3d 6c15 64bd 44e5 b33c 481c a3bd
000003b0: 55d2 97bd d5a1 b0bd 850d 9fbd 5076 f0bc
000003c0: b235 443d 3053 a1bb daec 03bd 1e15 a6bd
000003d0: 058d a03d a480 2ebd c895 85bd 8077 66ba
000003e0: c046 333b 4901 9abd 5786 9b3d 4ecc 743d
000003f0: 2c79 db3c 7ecc 7abd 53d0 af3d 0012 453a
0.03447809 0.037210338 -0.02570818 -0.07669999 0.0528683 0.04618693 -0.042990595 -0.06678298
-0.049527287 -0.07087053 -0.051017687 -0.04037058 0.04423415 0.06975814 -0.020215496 0.031286933
0.05825498 -0.074045405 -0.079106934 0.009280182 -0.010619514 0.02891156 0.04100538 -0.06632966
-0.03339748 0.010506377 0.054513298 -0.030813556 0.0414749 -0.033990737 0.01483117 -0.032991197
-0.0020082071 0.020469427 0.054680087 -0.084774695 -0.052524384 -0.031510927 0.06311058 -0.060893252
-0.035609163 0.087251194 -0.072036184 0.026106529 -0.0379015 0.030958563 -0.0044175014 -0.032517977
0.050161682 0.014024906 0.016741268 -0.03977725 -0.030046917 0.03735312 0.071405105 0.035648756
0.07308444 -0.08033948 -0.047443904 -0.008380584 0.023493819 -0.07423034 0.0716039 0.0148175135
0.014744841 -0.08646383 0.06387926 0.0070289522 -0.003162913 0.02681189 0.051430114 -0.015096195
0.024421334 -0.05098934 0.08273303 -0.06640593 0.018952355 -0.03721041 -0.074195035 -0.046882596
0.06601193 -0.008532494 0.07470874 -0.0036367476 -0.022082016 -0.034525875 -0.041156236 0.0061139166
0.037283547 0.077431925 0.008027837 0.017605357 -0.08003352 -0.0033738539 0.058173142 -0.0742758
-0.062369253 0.083885334 -0.08457017 0.06560717 -0.059530072 -0.06012076 0.058254533 0.01579506
0.060787193 -0.061399322 0.013844788 0.026048891 0.06129711 0.049077623 -0.017881915 0.08207401
0.057443954 -0.055826414 -0.08614174 -0.0729335 -0.021700658 0.051780097 -0.023247182 -0.039198693
0.08175003 -0.06681057 -0.016859718 0.022137135 0.029038101 0.06897264 -0.013428494 0.049793832
-0.0766863 -0.0029915348 -0.06215909 -0.046419017 -0.049068976 -0.019847214 -0.031649742 -0.027399655
-0.031268135 -0.04022959 0.07526287 0.07917205 0.06925837 -0.052646827 -0.059571467 0.038690828
0.076879464 -0.08516573 -0.01902274 0.05137544 -0.010984577 0.012994133 0.07405167 -0.011855602
-0.025845814 -0.048574135 -0.00958474 0.0097044185 -0.014061175 -0.025339104 0.0008241311 0.07403501
0.0060551018 -0.032952532 0.047804527 0.016322322 0.05360674 0.03268043 0.078936316 0.014080778
-0.0073779747 -0.06410372 0.06259773 0.060334124 -0.05630277 0.032675132 -0.08692709 -0.044795156
-0.0077676326 0.0329412 -0.02107247 -0.052457042 0.0484666 -0.057678074 0.056062408 -0.016921759
0.013068765 0.0317514 -0.033081196 0.086070366 -0.0727259 -0.0010437965 0.02206996 0.023348533
0.025817178 0.014497474 0.06390492 0.07151391 0.066472866 -0.044165965 -0.05491064 -0.018653631
0.05698871 -0.028538767 -0.015308268 0.07850746 0.05755096 -0.051200937 0.021678478 0.026639916
0.05982753 -0.005554661 0.068118714 0.087669216 0.0044497624 0.030361988 -0.071093656 -0.07062882
-0.02380678 -0.020153336 -0.077587344 -0.03142205 -0.01954677 -0.07061563 -0.07299976 0.08745732
-0.082936384 -0.08030689 -0.08033056 0.056275807 0.038817443 0.0026689544 0.0020255968 0.07827591
0.084932916 -0.055684492 0.021959908 -0.079643786 -0.074131645 -0.08624617 -0.077662505 -0.02935329
0.04790277 -0.004923247 -0.0322083 -0.081094965 0.07839397 -0.04260315 -0.06522709 -0.00087916106
0.0027355403 -0.075197764 0.07593983 0.059765153 0.026791178 -0.061230175 0.085846566 0.0007517636

bias f4 [6]
00000000: e0cd 7abc 6a53 043d 08ac 7cbc d978 81bd
00000010: c070 13bc aa27 11bd
-0.0153078735 0.032306112 -0.015421875 -0.06321878 -0.00899905 -0.035438217

weight f4 [1, 130]
00000000: 30c1 ffbc 388e a6bd a28b 2a3d 2f17 62bd
00000010: 9664 7b3d 2037 433c e8b5 2bbd e0b0 b93c
00000020: 0016 6c39 a09d 35bc 98e9 9e3c 38ea dbbc
00000030: 0084 a5ba 2ba4 19bd c02c 0d3b ac2f 82bd
00000040: 2094 2b3c e10f abbd aa3f 213d 6ed9 423d
00000050: 8045 80bb 8057 493a 9a28 05bd 9213 2c3d
00000060: f50f 5dbd b0ff 03bc 1591 18bd 8310 97bd
00000070: e4f4 81bc 0003 af3c a84e 003d 4418 4ebd
00000080: 6aa2 09bd 7085 c83b 95e2 9d3d 4922 1cbd
00000090: b83c 113c ada3 ab3d 1df4 00bd d32f 9e3d
000000a0: 94b9 a5bc eefb dcbc a834 773c 7a7b eebc
000000b0: d049 a13b 401a 6fbd a8f2 63bc 16e6 2e3d
000000c0: c825 b7bc e7e2 843d b638 aebd fa51 6e3d
000000d0: 5205 6f3d 11b4 953d fa0d 71bd d1ec a2bd
000000e0: 400f f03c f094 afbc c213 5c3d 01a6 883d
000000f0: bcdf 70bd f2d5 213d f44d 88bd 9eee 753d
00000100: 4049 eebc dc0b bb3c 30fa 81bb baaf 363d
00000110: fa5b a2bd 0871 3fbc da22 fdbc 18cd 79bd
00000120: 331f 8d3d 57de afbd f7cd 9b3d 9e35 76bd
00000130: 7e2c f4bc 46a8 303d 4874 7dbc aa4d 183d
00000140: a9d6 843d 68a3 76bd 70a8 1ebc 60fa 4f3b
00000150: 488c abbc 3fca abbd 2665 8dbd fb10 9bbd
00000160: 584d 85bc 0e3b 253d 4939 a53d 4056 453b
00000170: 8e61 6bbd 4035 af3b d88c 4c3c f92b 82bd
00000180: 05f0 913d 8017 5cba 8d22 903d 64e3 52bd
00000190: aa9f 223d 9a21 633d 8b1c 28bd 75f4 77bd
000001a0: e3f8 8e3d dd6a ae3d e494 77bd c740 833d
000001b0: a54d 1dbd 95d8 943d 5147 8e3d f008 ff3c
000001c0: 0eb2 3f3d a87a 01bc 6632 173d 6e39 503d
000001d0: be2d 593d 767f a4bd 1c1d 9abc 062a a3bd
000001e0: 10a5 34bd 099a 963d 52e0 1b3d 56de 533d
000001f0: cdc4 893d 5879 3e3c 50d0 0d3d e56e a5bd
00000200: 3891 17bc 31e2 a2bd
-0.031220049 -0.08132595 0.04163707 -0.05519789 0.061375223 0.011914998 -0.041921526 0.022667348
0.0002251491 -0.011084944 0.019398496 -0.026845083 -0.001262784 -0.03751008 0.0021541566 -0.06356749
0.0104723275 -0.08352638 0.039367355 0.04757064 -0.003914535 0.000768058 -0.032509424 0.04201085
-0.053970296 -0.008056566 -0.037247736 -0.07376196 -0.015863843 0.021363735 0.031325012 -0.05031611
-0.033602156 0.0061194226 0.07709233 -0.038118634 0.008864574 0.08380828 -0.031482805 0.077239655
-0.020230092 -0.026975598 0.015088238 -0.029111613 0.004922129 -0.058374643 -0.013912834 0.042699896
-0.022356883 0.06488591 -0.085069105 0.058183648 0.058354683 0.073097356 -0.05885122 -0.079553254
0.029304147 -0.021433324 0.05372978 0.06672288 -0.05880712 0.039510675 -0.066554934 0.060042016
-0.029087663 0.022832803 -0.0039665923 0.04460118 -0.079276994 -0.011684664 -0.030900408 -0.06098661
0.068907164 -0.0858733 0.07607644 -0.060109727 -0.029806372 0.043129228 -0.015469618 0.03718344
0.06486256 -0.06021443 -0.009683713 0.0031734928 -0.020940915 -0.08388185 -0.06904058 -0.07571598
-0.016272232 0.040339522 0.08067567 0.0030111223 -0.057466082 0.005346924 0.012484752 -0.06356043
0.07125858 -0.0008395836 0.0703784 -0.051486388 0.03970305 0.055451967 -0.041042846 -0.060535867
0.06981065 0.08516476 -0.060444728 0.0640884 -0.038404126 0.07267872 0.06947196 0.031132191
0.046800666 -0.007902779 0.036913298 0.05083602 0.05302214 -0.08032124 -0.018812709 -0.07967
-0.04410273 0.073535986 0.038055725 0.051725708 0.0672699 0.01162561 0.03462249 -0.08077792
-0.009250931 -0.07953299
